Results/outputs_conditional_downstream/graph_classifier.pth (torch, 20588 bytes, 8 tensors)

conv1.bias f4 [32]
000000 6d 7b 4f bd 7a 9f 7f bd 20 cc 35 be d8 75 5e bb
       -0.050654817 -0.062407948 -0.17753649 -0.0033944752
000010 d2 65 bc 3c 5d 49 1f bb d0 eb 9c bc f8 f1 7b 3c
       0.02299777 -0.0024305203 -0.019155413 0.015377514
000020 c5 36 22 bd ec 14 42 3b c6 91 28 3c 5b 55 0f be
       -0.039603014 0.0029614521 0.010288661 -0.13997404
000030 63 83 ab bd 59 89 fe bd 6d ab b8 bd 17 15 01 3c
       -0.083746694 -0.12428541 -0.09017072 0.007878563
000040 c2 c5 e4 bd 9e 39 04 bb 56 cb f2 b9 fd 2e be bd
       -0.11170532 -0.0020175944 -0.00046309334 -0.09286306
000050 06 43 ae 3c 79 ef b5 3d 09 bd ad bb cb a4 73 bc
       0.021272194 0.088835664 -0.0053020758 -0.014870833
000060 ce 45 04 bd 70 fa 59 bb 89 54 80 bd 93 fb 14 3e
       -0.032293133 -0.0033260845 -0.06266124 0.14549093
000070 93 44 3d bd 5a 01 00 be 3f a0 ae bc 85 f8 0d bd
       -0.046207976 -0.12500516 -0.021316646 -0.034660835

conv1.lin.weight f4 [32, 32]
000000 bf dc 17 be a0 a3 bf bd b2 63 f5 3d 2e 12 3f 3d
       -0.14830302 -0.09357381 0.11981906 0.046648197
000010 94 6f 71 3b 69 11 61 3e d9 36 d9 3d 37 de 74 3c
       0.0036840187 0.21979298 0.106061645 0.014945558
000020 55 a5 29 3d 68 a1 ac 3e 15 c8 79 be 3a d4 02 bd
       0.04141744 0.33716893 -0.24392731 -0.031940676
000030 14 74 30 be ed 0a 93 3d 6d 58 85 3e f0 7d 5c 3e
       -0.1723178 0.07179818 0.26044026 0.21532416
000040 56 12 50 bd 29 4e cd bc 2d 3c d7 3b 5d e2 4e 3e
       -0.050798737 -0.025061684 0.006568453 0.20203538
000050 97 f4 8d 3d 18 ca b3 3d dc 5e d3 3d 46 3a af 3e
       0.069314174 0.08778781 0.10320827 0.34224147
000060 0d 4d 55 3d 2a 2e 78 3e c6 c2 a7 be 94 6c ba 3d
       0.052075434 0.2423636 -0.32765788 0.09102741
000070 fc 08 cf be 15 18 2a 3e 11 84 38 be 27 e2 02 be
       -0.40436542 0.16610749 -0.1801913 -0.12781583
000080 02 08 35 3e 8d 16 68 bd dd 74 b0 3d 58 a4 e9 3d
       0.17678836 -0.05666213 0.0861604 0.11408299
000090 c3 84 8d be a1 be 19 be 26 e0 e6 bd 4b de 46 be
       -0.27640352 -0.15014125 -0.11273222 -0.19420736
0000a0 ce 8c f1 bd c2 e1 47 3e 67 3f 88 3c 22 00 0e be
       -0.117944345 0.19519714 0.016631795 -0.13867238
0000b0 25 a3 34 be 01 79 33 be 6a a9 39 bd f0 06 8f bd
       -0.1764036 -0.17526628 -0.04532758 -0.06983745
0000c0 da 72 6a 3c 65 2e fb bd 65 3b b1 be 0e b7 bc be
       0.014309609 -0.122647084 -0.34615627 -0.3685841
0000d0 00 f2 43 be b0 d7 7a 3d 33 fb 51 bd 6c 7c 65 3e
       -0.19135284 0.061240852 -0.051264953 0.22410744
0000e0 cf a0 c7 3d 39 56 9e be 35 95 c3 3d ff 1a 1e be
       0.09747469 -0.30925158 0.09549943 -0.15439986
0000f0 86 69 b0 3e db cb 6e 3e 77 56 e4 3c e8 23 50 bd
       0.34455508 0.23319952 0.02787326 -0.050815493
000100 f0 cf 8f 3d fb 09 3e be 48 5f 7e bd 40 ae 44 3e
       0.07022083 -0.18558495 -0.062102586 0.19207096
000110 45 d1 38 be fd 24 6d bd 21 40 15 be 84 f6 7c be
       -0.1804858 -0.057896603 -0.14575244 -0.24703413
000120 d4 ba 23 3d 16 da 12 be a0 57 64 3d b3 fc d7 3d
       0.039973095 -0.14341006 0.05574763 0.105462454
000130 eb 7b 2e 3e df da de 3c c9 1f f3 bc f1 6e 39 3d
       0.17039458 0.027203975 -0.029678242 0.045271818
000140 9a ba 36 bb 29 df 9b 3d ff 68 6a 3c ed 5a df 3d
       -0.002788222 0.07610924 0.01430726 0.109060146
000150 22 10 52 be 78 a3 19 3e ce b1 22 3d 85 ed 9f 3e
       -0.20513967 0.15003765 0.03972035 0.312359
000160 12 16 e0 bd bb 28 ad be 92 0f 00 be a4 91 05 be
       -0.109417096 -0.33820137 -0.1250594 -0.13043839
000170 47 03 35 bd 9e 99 05 bd c7 b3 32 be 78 02 99 3d
       -0.04419258 -0.032617204 -0.17451392 0.07471174
000180 24 c9 f9 bd a6 5a d8 bd 2f 0d 2a bd 7e 93 78 be
       -0.12196568 -0.10564165 -0.04151648 -0.24275014
000190 c3 d4 59 be 9b 96 01 be 7e 58 05 be 3b ad 1e be
       -0.21272568 -0.12655108 -0.13022038 -0.1549577
0001a0 65 3a 37 3e c8 d0 9d b9 54 7b 91 3d 0b ce ea 3c
       0.1789337 -0.00030100928 0.07103601 0.028662702
0001b0 a1 7e 0c be f9 34 9b 3b 63 c8 02 be e2 42 a3 be
       -0.1372018 0.0047365394 -0.12771754 -0.31886965
0001c0 82 1f 5a 3e 0f f0 32 3e 37 1f 0b 3e 7f 9b 9d be
       0.21301082 0.17474388 0.13586126 -0.30782697
0001d0 8a 2c 8b be 39 52 19 be 6e 81 76 bd b3 db 00 3e
       -0.27182418 -0.14972772 -0.060182028 0.12583809
0001e0 29 7f 9a bc 44 f2 3c be 03 5f 5e bd 00 aa d7 bd
       -0.018859463 -0.18451792 -0.05428983 -0.10530472
0001f0 55 44 00 bd dd 02 79 be 6a da 18 3e b0 9c 2f 3e
       -0.031315167 -0.24317499 0.14927068 0.17149615
000200 1f f0 92 3c e1 cf fe 3d 24 cc 89 3e e1 0d d0 3d
       0.017936764 0.124419935 0.2691356 0.10158897
000210 61 e4 d5 3d a6 a4 25 be a6 1f 9d be 46 39 61 3d
       0.104439504 -0.1617609 -0.30688208 0.05498626
000220 57 ba 35 bd e2 af a8 bd e1 0b a6 be 8c 13 ad 3e
       -0.04436716 -0.08236672 -0.32430938 0.33803976
000230 a7 04 3e 3e ec c4 9b 3c 64 3c ca be 50 1c 0f 3e
       0.18556462 0.019014798 -0.394992 0.13975644
000240 92 c4 6f 3e 11 65 9f 3e b6 2a 28 bd 0d df 86 bd
       0.2341483 0.31131795 -0.041056357 -0.06585512
000250 8d ef bc 3e 1c 6a 29 3b 81 9d a6 3e 49 cc 30 3e
       0.36901513 0.00258506 0.3254204 0.17265429
000260 af 4a 49 bd 2f 48 44 be 9e 55 bb bd c7 95 27 be
       -0.04914349 -0.19168161 -0.091471896 -0.1636573
000270 43 af 95 3e e1 ef bc bd 81 d0 6c 3e 1b ba 9e 3e
       0.29235277 -0.09225441 0.23126413 0.31001362
000280 77 1e 77 3d ad c4 d1 be 37 3d fb be e5 c1 03 3e
       0.060331788 -0.40970364 -0.4907014 0.12866934
000290 30 da 65 3d e7 80 fe 3d eb ad 3b 3e 1a 73 81 3e
       0.056116283 0.1242693 0.18328063 0.25283128
0002a0 bb 12 b8 be 62 66 a3 3e 78 cb 1b 3e bb 21 62 be
       -0.3595179 0.3191405 0.15214336 -0.2208318
0002b0 60 6c c6 be ab 39 24 be 76 65 d3 be 63 53 54 3d
       -0.3875456 -0.16037624 -0.41288346 0.051837336
0002c0 07 50 fb bd e4 6a 5b be b0 1e 4e be 61 c8 65 be
       -0.122711234 -0.21427494 -0.20128894 -0.2243972
0002d0 85 85 3e 3e d9 9b 96 3c 00 b5 6f bd 2f 26 0b 3e
       0.18605621 0.01838486 -0.058522224 0.13588785
0002e0 3c 16 1f 3e a5 22 ea 3d ba 8d 28 3e ac c2 86 3c
       0.15535825 0.11432389 0.16460314 0.016450249
0002f0 ce ff c8 3c 4c b0 7c be d6 32 ee bd ba 1d 27 3e
       0.02453604 -0.24676627 -0.1163079 0.16319934
000300 39 81 80 3e d3 19 7b be d0 53 3e 3e d7 b9 11 be
       0.2509859 -0.2452157 0.1858666 -0.14231049
000310 7d ac ca bd 01 43 88 be 71 e0 2c be ab de 15 be
       -0.09896181 -0.2661362 -0.16882493 -0.14635722
000320 15 08 a5 3e da be ba 3e 11 df 50 be 9a 1b 1f 3c
       0.3223273 0.36473733 -0.20397593 0.009711171
000330 b8 30 d1 be 3a 52 4a be 5a ad f2 bd 9c 61 d2 3d
       -0.40857482 -0.1975793 -0.118494704 0.10272524
000340 22 26 97 be 5c 46 bf 3d 06 53 26 3e fc bf 49 be
       -0.2952128 0.09339592 0.16242608 -0.19702142
000350 a0 ce 54 be de fa 65 3e 18 d4 05 3e 19 0d 10 be
       -0.20781946 0.2245898 0.13069189 -0.14067496
000360 9c f3 f7 bd 16 0e 1a 3e 72 fd 31 3e 35 53 01 3e
       -0.12107012 0.15044436 0.17381838 0.12629397
000370 78 44 d0 3e 69 ea bc be a1 68 12 be 47 0e be bc
       0.40677238 -0.3689759 -0.14297725 -0.023200167
000380 7d 5d d1 bc e6 f8 a6 3e fa 1d ca bd 45 92 32 bd
       -0.025557274 0.3261177 -0.09868999 -0.043596525
000390 0f 1f 8e 3e f0 47 cd 3d 13 aa dd bd 16 a3 12 be
       0.2775807 0.100234866 -0.10823455 -0.14320025
0003a0 c3 76 af bd 25 c1 a6 bd ac 00 4f 3e 1e 0f 57 3d
       -0.08567574 -0.08142308 0.202151 0.05250465
0003b0 0b 39 83 3d e3 4b c8 3c 49 ac 84 be e9 fa 4c 3e
       0.064073645 0.024450248 -0.25912693 0.2001759
0003c0 ba 28 59 3d 1a 46 be 3d 11 06 6f 3d 7a 25 b8 be
       0.053017356 0.092907146 0.058355395 -0.35966092
0003d0 b1 1d 7e 3e d1 e6 7c 3e 6f 4a 7c 3e 2b 24 58 be
       0.24816014 0.24697424 0.24637769 -0.21107547
0003e0 1f e5 d6 3d d4 d4 61 3d 46 41 b7 3d 26 64 65 3e
       0.1049292 0.05513461 0.08947997 0.22401485
0003f0 88 54 ba bc 62 f0 27 3e 19 2f 48 3c f3 f0 d0 39
       -0.022745386 0.16400293 0.01221826 0.00039852373

conv2.bias f4 [32]
000000 ca 1b 40 3c 9f 68 84 bc 05 07 9f bd 7b 3b a2 bd
       0.011725375 -0.016163168 -0.07765011 -0.07921501
000010 73 30 74 3b 6d 50 7b 3d 45 0a 21 3d 8b dd d7 bd
       0.0037260323 0.061355997 0.039316434 -0.10540303
000020 a7 ba 00 bd ad e3 2f 3d 60 7d 95 3d e5 de 1d bd
       -0.031428006 0.042941738 0.07299304 -0.038542647
000030 f6 8d b3 bd 3e df e6 bd 54 cd 32 3c 47 e8 c7 bd
       -0.08767311 -0.11273049 0.010913212 -0.097611
000040 7e f6 56 3d 9f 02 df 3d 42 a2 a1 bc a5 ac b4 bd
       0.052481167 0.10889172 -0.01973069 -0.08821992
000050 32 88 e8 bd eb 05 92 bd 41 0e 88 bc 55 29 66 bd
       -0.11354102 -0.07130035 -0.01660836 -0.05619176
000060 9c 4f ed bc 13 d9 78 bc b7 40 04 be 66 b6 c8 bc
       -0.028968625 -0.015188473 -0.12915312 -0.024501037
000070 e7 30 61 bd cc ce 90 bd 61 59 15 3c fc cd 9a bc
       -0.054978278 -0.070706934 0.009115548 -0.01889705

conv2.lin.weight f4 [32, 32]
000000 4b eb 19 3e ea 1a 6c be d3 55 14 3e 8a 78 f7 3c
       0.15031163 -0.23057142 0.14485864 0.030208845
000010 24 3b 69 bd c7 fb 2b 3e 20 33 45 be ac 1c ed bd
       -0.056941167 0.16795264 -0.19257784 -0.11577734
000020 29 1c 2d bd b7 e4 95 be 2f 92 80 3e 58 d4 06 3e
       -0.042263184 -0.29276058 0.2511153 0.1316694
000030 1f d1 0a 3e a7 c4 72 be 8d ff 71 be 68 9f 80 be
       0.13556336 -0.2370783 -0.23632641 -0.25121617
000040 5b d2 f2 bb f8 56 82 be 45 d2 ca 3d a4 9c e5 3d
       -0.00741033 -0.25456977 0.09903387 0.112115175
000050 f3 27 e0 3e d3 01 d7 bd d4 cb a0 be 55 47 3a be
       0.4378048 -0.10498395 -0.3140551 -0.18191274
000060 f5 32 93 3e 0b c1 15 be 15 40 a4 3d a4 34 1a be
       0.28749815 -0.14624421 0.08020035 -0.15059143
000070 7b 73 5a 3e 74 19 a9 3d fe 82 55 bd 00 a2 98 bd
       0.21333115 0.08256808 -0.052126877 -0.07452774
000080 0d 25 61 be 1d 59 e5 3c 41 d0 15 3d 6f 12 b9 3d
       -0.2198679 0.027996594 0.03657556 0.09036719
000090 bb fa 9c ba 3e 14 a1 3e f7 18 2a 3e 40 68 a2 3d
       -0.0011976579 0.31460756 0.16611086 0.0793004
0000a0 31 8d 76 be 50 46 af bd 28 07 df bc 10 fd 7d be
       -0.24077298 -0.08558333 -0.027225092 -0.24803567
0000b0 c9 09 e5 3d 6b b9 e7 3d e6 59 35 be 10 1a af 3d
       0.11183507 0.113146625 -0.17710075 0.08549893
0000c0 d1 f6 b9 bc 52 b5 68 3e 95 e2 97 bd 11 51 65 3e
       -0.022700699 0.22725418 -0.07416264 0.22394206
0000d0 4f 11 2e 3e 63 4c f8 bd a2 cd a4 3b 0f fe ba b9
       0.1699879 -0.121239446 0.005029396 -0.00035665973
0000e0 40 f1 94 3e b9 67 ab 3d d8 db 65 3c 8c 52 e8 3d
       0.2909031 0.08369393 0.014029466 0.113438696
0000f0 ec 05 8d be 72 14 d8 bc 1d 9b fe 3d bd 01 92 be
       -0.2754358 -0.026376937 0.12431929 -0.2851695
000100 53 54 70 3e 77 1d 0e 3e 52 83 98 3e 54 df cd bd
       0.23469667 0.13878427 0.2978769 -0.10052362
000110 e7 ff 4b bd 3e 11 11 be b8 56 b2 bd 9d f2 27 be
       -0.049804594 -0.14166734 -0.087079465 -0.16401143
000120 58 10 f9 3d a9 86 d1 3e ab 8e c1 bc 90 72 f2 3d
       0.121613204 0.4092305 -0.0236276 0.11838257
000130 8b 8e d0 3d f6 0b e0 bd d1 12 44 be c7 40 46 bc
       0.10183438 -0.10939781 -0.19147803 -0.012100405
000140 bc c2 50 be d3 4b 1d 3e 6e ef 87 be ba 00 30 be
       -0.20386785 0.15360956 -0.26549858 -0.17187777
000150 4a 81 86 be f6 f4 c9 be d9 8f 93 be 04 5d 82 3e
       -0.26270515 -0.39444703 -0.28820685 0.2546159
000160 26 01 a3 bd ee 40 a3 be 9f c2 1b 3e f5 53 d2 bd
       -0.079592034 -0.31885475 0.15210961 -0.1026992
000170 38 ce 1f 3e 6b 83 6e 3e a5 bd 32 be 54 7b fc bd
       0.1560601 0.2329232 -0.17455156 -0.123282105
000180 ab d2 82 be 07 b8 7f 3d 8b 73 06 bc 01 b4 cd 3e
       -0.25551352 0.06243136 -0.0082062585 0.40176395
000190 76 5d 07 be 58 5b c0 3d f9 c3 09 3e ac 99 08 bc
       -0.13219246 0.093924224 0.13453664 -0.0083374195
0001a0 52 4e e9 3d 35 10 61 3e 24 42 98 3c ca 22 f3 3d
       0.113918915 0.21978839 0.018586226 0.1187187
0001b0 a6 ce 5b be 6d 15 86 bd ce a1 15 3d 8d b3 70 3e
       -0.21465549 -0.065470554 0.036531262 0.23505993
0001c0 b0 09 c7 3d 9c ff 9e 3e 2d c1 8b 3e e6 6b 6d be
       0.097186446 0.3105439 0.2729582 -0.23185691
0001d0 58 8a c1 bd 7b e9 63 3e e5 06 42 3e b0 06 92 3e
       -0.09450215 0.22257034 0.18947943 0.28520727
0001e0 e7 bd 1b bd 08 2b 25 bc 08 fc 15 3d a1 21 71 be
       -0.038022902 -0.01008106 0.03661731 -0.23547985
0001f0 74 f4 2e 3e 8c b2 60 bd 7f 36 4a 3e 83 03 87 be
       0.17085439 -0.054857776 0.19747351 -0.26369867
000200 1d 8c e3 bd e4 48 e8 3d 5d a3 3a 3d 58 e2 e2 bd
       -0.11110709 0.11342028 0.04556595 -0.11078328
000210 3c 43 16 3e 10 a6 6c bb 62 10 bc 3e ce 6b a5 be
       0.14674085 -0.0036109723 0.3673125 -0.3230881
000220 39 63 13 3e 11 50 54 be b4 d9 e6 3d 05 9d a7 3e
       0.14393319 -0.20733668 0.11271992 0.32736984
000230 33 76 eb bd 0f 49 29 3e f9 c6 4c be c7 53 e4 bd
       -0.11497154 0.16531776 -0.19997777 -0.11148792
000240 3c e0 59 be eb eb 65 3e 47 5e 3b 3c af ea 5b 3e
       -0.21276945 0.22453277 0.011436052 0.21476243
000250 a5 58 e6 bd ab 42 6a be 46 2d 74 be 43 47 93 be
       -0.11247376 -0.22876994 -0.23845395 -0.28765306
000260 38 cd fa bd be d7 d5 bd a7 8d 94 3e bb 9c 17 be
       -0.122461736 -0.1044154 0.29014322 -0.14805882
000270 80 1b a6 3e fc cc 0b be 7f ff ba be ee 1d 63 3e
       0.32442856 -0.13652414 -0.36523053 0.22179386
000280 98 c3 1e be d1 88 80 bd a8 55 89 bc b6 52 22 bd
       -0.155043 -0.06276096 -0.016764477 -0.03962966
000290 1d 7e 34 3e 56 60 90 be d7 21 33 3e 2b 76 15 3d
       0.17626233 -0.28198498 0.17493378 0.036489647
0002a0 13 f2 f7 3d 85 50 29 3c c3 a2 34 be 77 f6 94 bd
       0.12106719 0.010334139 -0.17640214 -0.07273572
0002b0 6c f6 c7 3d b8 b4 bd bd 1b 10 57 be f5 58 9d be
       0.09763798 -0.09262985 -0.21002237 -0.3073193
0002c0 b3 ec 1d be 6c 58 db bc db a6 75 bd a8 94 46 3e
       -0.15422325 -0.026775561 -0.05997358 0.19392645
0002d0 91 98 2d bd 33 e7 03 be dc d2 3e 3d f1 96 4e 3e
       -0.042381827 -0.12881164 0.04658781 0.20174767
0002e0 fb 2a 8a 3e 88 e5 fe 3d 2f 77 e5 bd eb 8a a0 3e
       0.26985916 0.12446123 -0.11204373 0.31355986
0002f0 7a ee 7d be 6f 8c 3f be ec 02 67 3e f5 8a ca 3d
       -0.24798003 -0.18705915 0.22559708 0.09889785
000300 5e 82 2e 3e d1 de 8c bd c8 50 24 be d5 01 a0 3c
       0.17041919 -0.06878436 -0.1604644 0.019532124
000310 b6 a3 3c 3e 62 ec c6 be 35 f9 08 bd 67 2f 26 be
       0.18421826 -0.3885222 -0.033440787 -0.1622902
000320 f4 46 08 3e 5f 7d de 3d 28 69 5a be df 12 8c be
       0.13308316 0.108637564 -0.21329176 -0.27358148
000330 3b 59 6e 3c 48 c1 c4 bd a6 4c 2f bd a5 e4 62 bd
       0.014547641 -0.09607178 -0.042797707 -0.055393834
000340 e9 ba 40 be 9c b1 3d bc 64 81 f1 bc a9 f0 b6 3d
       -0.188213 -0.01157799 -0.029480644 0.08932621
000350 94 81 59 bd b6 05 29 3d 55 94 c3 3e 5d f6 b5 3d
       -0.05310209 0.041265212 0.38199106 0.08884881
000360 04 b0 41 3e 42 28 86 3e 12 2b b5 bd 1d 51 a2 3d
       0.18914801 0.2620259 -0.08846106 0.079256274
000370 c0 4a af be 80 5f 18 3e 99 2f 8e 3e 19 a2 9a 3e
       -0.34236717 0.1488018 0.2777069 0.30201796
000380 b6 5b 2e be a3 d1 10 3e 55 cb 52 3e 75 c2 d6 3a
       -0.17027172 0.1414247 0.20585378 0.0016384857
000390 bb ba 22 be c1 e1 30 be e3 7b be be 35 ef d4 3d
       -0.15891545 -0.17273618 -0.37203893 0.103971876
0003a0 79 86 45 3d d1 76 22 3d d6 8b 8f 3e 74 9e 32 be
       0.048223946 0.039664093 0.28036374 -0.17443258
0003b0 b9 dd b0 bc 50 ea 30 3e 20 90 93 be cd 7d 72 3e
       -0.0215901 0.17276883 -0.28820896 0.23680802
0003c0 c8 75 27 3e a6 40 4d be a5 e1 4e be c4 6d 1d bc
       0.16353524 -0.20044193 -0.20203264 -0.00960869
0003d0 50 10 c8 3d eb b6 12 be cb 67 c8 3d 85 53 25 bd
       0.09768736 -0.1432759 0.09785422 -0.040362854
0003e0 32 4b 5a 3e b9 c1 c2 3d c3 96 89 bd 96 6a ca be
       0.21317747 0.09509606 -0.06718209 -0.39534444
0003f0 aa 03 47 3e 38 b7 11 3e 71 f4 bd bd 23 d3 04 be
       0.19434991 0.14230049 -0.09275139 -0.12971167

fc1.weight f4 [32, 64]
000000 cc 16 78 bd c2 3b 92 bd aa af 74 3a 7e c4 00 be
       -0.060568616 -0.07140304 0.00093340373 -0.12574956
000010 dd cd 81 bd e7 ba 4f bd 4d d9 f9 bd c0 b9 ff bd
       -0.063380934 -0.050715353 -0.1219965 -0.12486601
000020 3f d4 10 be c9 e2 ea bb 80 74 87 bd f2 1a 3d 3c
       -0.14143465 -0.007168148 -0.066140175 0.011542069
000030 f4 33 8c bd 48 0d d2 bc d7 ab f9 bd bb 2b 58 bd
       -0.06845847 -0.025641099 -0.12190979 -0.05277608
000040 a3 1f 1d be 82 10 7d bd dc ba e9 bd 9b 0f 17 be
       -0.153441 -0.06178332 -0.11412594 -0.14752047
000050 67 56 cb bd 0c 72 97 bd b5 1f 7a 3d 35 ad 5b bc
       -0.09928589 -0.073947996 0.061065394 -0.013407995
000060 16 13 83 bc a1 c8 ea bd 76 fc c6 bd f6 f2 49 be
       -0.016000312 -0.11464048 -0.09716122 -0.19721588
000070 52 51 93 bd 1c 50 bb bc e3 db a9 3a 08 24 7b bd
       -0.07193245 -0.022865348 0.0012959208 -0.06131366
000080 3e 49 eb bd f6 02 d0 bd 6d 15 c2 bc c8 d1 2c 3d
       -0.11488579 -0.10156815 -0.023691857 0.04219225
000090 9f ef 87 bd 48 b3 37 be dd 6f 47 be e9 7e fa bc
       -0.06637501 -0.17939484 -0.19476266 -0.030578094
0000a0 dd 64 b6 3c 79 fa e8 bd ca 87 27 bc 71 75 a4 3c
       0.022264892 -0.11375899 -0.010225246 0.020075532
0000b0 bb 4e 2a 3d f6 31 b3 bb f2 fc 03 be 64 54 79 3c
       0.04157899 -0.0054686023 -0.1288946 0.015217874
0000c0 2f 92 72 bd 47 af 41 be 14 42 46 be 7c f1 00 be
       -0.059221443 -0.18914519 -0.19361144 -0.12592119
0000d0 26 0e ab 3c 31 d9 ae 3d 40 53 48 3d b7 13 0a be
       0.02088077 0.0853752 0.04890752 -0.13484083
0000e0 e3 e9 9d bc e8 c7 f6 bc 96 fb 21 3d a9 72 14 be
       -0.019276565 -0.03012462 0.03954657 -0.14496864
0000f0 63 bc 10 bc 75 f2 2c bd f9 aa 13 bd f9 2b 44 be
       -0.008833977 -0.042223413 -0.036051724 -0.19157399
000100 db ec a6 bd 34 d9 af bd 5c dd d6 bc 83 ce e7 bd
       -0.08150645 -0.0858635 -0.0262286 -0.11318686
000110 8d 0f f7 bd 8f 70 80 3e e3 0b 77 3e 66 8f 22 3d
       -0.12063513 0.25085875 0.24125628 0.039687537
000120 c3 de ca bc 6b 79 bb bc e5 a7 54 be f3 27 4b 3c
       -0.024764424 -0.022885045 -0.20767172 0.012399661
000130 a0 dc 76 bd 36 67 6b 3c 54 f3 e6 bd ff 57 b1 bd
       -0.060269 0.014367869 -0.1127688 -0.08659362
000140 3f 4c f2 3d d5 2e ce 3d 85 b9 b7 3c 10 34 70 3d
       0.11830949 0.10067526 0.02242733 0.0586434
000150 49 ed ff 3d 47 ba 94 bc 55 44 78 be 12 25 2b 3d
       0.124964304 -0.01815523 -0.24244817 0.0417834
000160 4f 5c 80 3d 4b e8 8c 3d b4 89 e3 3d 95 27 a4 3d
       0.062676065 0.06880244 0.11110249 0.08015362
000170 da f7 b9 bc ce f2 b0 bd c8 d7 e2 bd 5a 9c 60 3d
       -0.022701193 -0.08640061 -0.11076313 0.05483661
000180 d1 38 33 bc 98 59 1c be 38 f5 2f be 8c c2 c6 3b
       -0.010938839 -0.15268552 -0.17183387 0.0060656723
000190 1c df 0e 3d 0c 31 96 bb 0b 67 47 bb 37 63 69 3c
       0.034880742 -0.0045834836 -0.0030426409 0.014244846
0001a0 97 4c 13 bd 1b 81 21 be 42 cc 99 bd 44 74 f8 bd
       -0.035961714 -0.15771906 -0.07509662 -0.12131551
0001b0 c9 65 af bc c6 d9 35 be 84 86 d8 bd 35 52 87 bd
       -0.02141084 -0.17758855 -0.10572532 -0.066074766
0001c0 e3 a4 1a bc 63 e2 37 bd e7 d0 1a be 61 32 e2 3d
       -0.009438726 -0.044893634 -0.15118752 0.11044765
0001d0 bb 24 42 bd ac 3e 9f bd 32 6b 12 3c 7f 41 e5 ba
       -0.04739831 -0.077756256 0.00893669 -0.0017490833
0001e0 62 6d 81 bd a1 c6 15 3e 70 db fd 3c fd a0 06 3d
       -0.06319691 0.14626552 0.030988425 0.032868374
0001f0 2f 45 11 3e 68 a0 e4 bd 55 8f 28 bd 77 51 d8 3d
       0.14186548 -0.111634076 -0.041152317 0.10562413
000200 a3 e4 cc bd 68 ce 85 bd 7e 47 8f bd 21 7a 5a 3d
       -0.100045465 -0.065335095 -0.06996058 0.053339127
000210 61 f7 bc bd 73 09 03 3d c0 3a 63 bc d6 0b 38 3d
       -0.09226871 0.031991433 -0.013868988 0.044933163
000220 4b 2d 2e bd a9 52 de bc 64 d7 f0 bd 7d 90 da bb
       -0.042523663 -0.027139025 -0.117598325 -0.0066700564
000230 84 8d 2a 3d 4d 0f 24 be 66 b4 c6 bd 41 41 7e bd
       0.041638866 -0.16021462 -0.09702377 -0.06207395
000240 87 fd ee bd e4 05 37 3d 3f 23 02 be 4a e4 4c bd
       -0.1166945 0.044683352 -0.12708758 -0.0500224
000250 98 e1 eb bd 1e ad 15 be b5 40 3f 3d e3 b6 a7 bc
       -0.11517638 -0.1461682 0.04669257 -0.02047295
000260 27 a4 b8 bd 9c 6a a8 bd 31 5d c8 3d e8 0a 73 3d
       -0.090156846 -0.08223459 0.097834 0.059336573
000270 47 3c 9d 3c 73 f5 70 3d c8 79 b2 bd 79 ea 82 bc
       0.019193782 0.05882783 -0.08714634 -0.015980946
000280 a6 ab 5f bd f3 ef d7 bd eb 5a 29 be b0 a6 18 3d
       -0.054607056 -0.105438136 -0.16538589 0.03726834
000290 5d 4a 62 3c 03 bb ca 3c 10 c2 31 bd b5 6c 27 3d
       0.013811675 0.024747377 -0.043397963 0.040875155
0002a0 0c 9a 25 be 21 86 d1 bd fc 82 10 be 35 06 02 be
       -0.16172045 -0.10230661 -0.14112467 -0.1269768
0002b0 21 07 0c be 2c d9 08 3d 12 fe 7c 3a c7 89 46 3b
       -0.13674594 0.033410236 0.00096508965 0.0030294524
0002c0 84 99 db bd d8 44 13 bd 88 f9 c2 3c 72 f2 83 3c
       -0.1072264 -0.035954326 0.023800626 0.016106818
0002d0 74 28 74 3d 9c f3 b7 bc 98 a2 08 be 06 e9 f0 bd
       0.05960889 -0.02245503 -0.13343275 -0.11763196
0002e0 12 4b 03 3d eb 6a df bd cd e9 1b be 8b db 73 bd
       0.032054015 -0.10909065 -0.15225907 -0.059535544
0002f0 0b 57 c2 bd 2d d1 ae bc a7 10 32 be d7 c2 ce bd
       -0.094892584 -0.021339977 -0.17389165 -0.100957565
000300 c3 58 ff bd 53 27 01 3e 5a c0 f1 bc fa 5a 02 be
       -0.12468102 0.12612657 -0.029510666 -0.12730017
000310 1b 7f 57 be ba eb c4 3e 9d 15 9b 3e d3 47 b9 bd
       -0.2104458 0.38461095 0.30289927 -0.090469025
000320 f9 3d 9f bd 1a bd db 3d 1d c7 63 be 18 60 94 bd
       -0.07775492 0.10729428 -0.22243924 -0.07244891
000330 d3 e2 0c bb cd 19 17 be 40 46 81 be 41 54 39 bc
       -0.0021497502 -0.14755936 -0.2524891 -0.011311592
000340 65 0b 7f 3e 42 23 9f 3e 92 ad 17 3c d4 f8 2c 3d
       0.2490669 0.31081587 0.009257691 0.04222949
000350 75 70 4c 3e 74 e2 47 3c 3f e9 8b be 17 3e 17 bd
       0.19964774 0.012199987 -0.2732639 -0.036924448
000360 e0 d0 4c bc 9f 9d 52 3e 58 f9 b5 bd e1 62 2e bc
       -0.012500972 0.2056794 -0.08885449 -0.010643692
000370 34 0e 76 bd 96 38 06 3d f9 a0 6b be f6 b2 12 3e
       -0.06007214 0.03276881 -0.23010625 0.1432608
000380 a8 ab 06 be f3 f8 92 3d c2 53 ef bd b7 4e 50 bd
       -0.13151419 0.071763895 -0.116858974 -0.05085632
000390 88 f5 6a be 9f 0d 1e 3e 67 da 82 3e 45 e1 3c 3d
       -0.22945225 0.15434884 0.25557253 0.04611327
0003a0 db 8e c3 3c f6 04 18 3d 27 2a 8f be d5 74 c2 bc
       0.02387183 0.037114106 -0.27961847 -0.02373735
0003b0 de 86 be 3b 70 34 8d ba b9 0a 08 bc 45 76 22 bd
       0.0058144173 -0.0010773074 -0.008303338 -0.039663572
0003c0 20 d0 c2 3d 25 25 be 3d 3c eb d4 3d 72 11 6e bd
       0.09512353 0.092844285 0.1039643 -0.058122106
0003d0 ad e7 3b 3d fb 68 30 be a4 c6 28 be 26 f2 2e 3c
       0.04587524 -0.17227547 -0.16482025 0.01067785
0003e0 d6 10 b3 3d de 30 49 3e 31 10 47 bc 45 ed 99 bd
       0.087434456 0.19647548 -0.012149856 -0.07515959
0003f0 70 eb 07 3e 51 3b 13 be a2 5e c3 bb 8c 3e 00 3d
       0.13273406 -0.14378096 -0.005962209 0.03130965

fc1.bias f4 [32]
000000 16 84 33 bd ac 18 41 bd 9e 18 8d bd 20 40 af 3c
       -0.04382714 -0.04714267 -0.06889461 0.021392882
000010 08 26 a5 bd e7 d4 69 3d eb b5 01 3a 54 3c 6e bd
       -0.080638945 0.057087805 0.00049480674 -0.058163002
000020 a3 b3 8c ba 04 9b 21 be 32 30 b0 bd 55 b6 36 3c
       -0.0010734688 -0.1578179 -0.086029425 0.01115187
000030 19 0c 01 3d e8 29 39 3d 90 96 ff bd 14 81 8a 3b
       0.031505678 0.04520598 -0.124798894 0.004226813
000040 86 54 1e bd 66 98 95 bd 73 ad af 3d 26 77 b8 bc
       -0.038654827 -0.07304458 0.08578005 -0.022517752
000050 74 86 5d bd 9d ac 4a 3c 5c be 42 bd 89 3f eb bc
       -0.054083303 0.012370256 -0.047544822 -0.02871682
000060 e6 22 21 bd f0 c1 55 bd 72 7d c3 bc 50 e5 08 3e
       -0.039339922 -0.052186906 -0.023863528 0.13368726
000070 5c 31 59 3d 63 3a 73 bd db cb 59 3d 17 de 81 bd
       0.05302559 -0.059381854 0.053172927 -0.063411884

fc2.weight f4 [3, 32]
000000 03 ee ea bb ec 88 11 3e c5 14 c2 3a d7 60 a7 3e
       -0.0071694865 0.14212388 0.0014807215 0.3269107
000010 72 7e 56 bd 4f f2 e3 3d dd 4e 4e 3d 2e d4 a3 3d
       -0.05236668 0.11130201 0.05036818 0.079994544
000020 5a 97 6e 3d 2a 6d 9d bd be e1 17 be 97 ed 11 3c
       0.05824981 -0.07686837 -0.14832208 0.0089067435
000030 69 66 cd 3d 0c d7 5a 3e 22 90 60 3e 90 31 92 3b
       0.10029299 0.21371096 0.21929982 0.0044614747
000040 1f d6 5b 3d 05 e5 87 3d 79 c2 36 be 10 c4 34 bb
       0.053671 0.06635479 -0.17847623 -0.0027582683
000050 12 cf 3f be be a5 93 bd c7 c4 09 3e 71 cb 8e bd
       -0.18731335 -0.07209347 0.13453971 -0.06972397
000060 92 f9 d9 bc bb 05 2d bd 2d 9b 92 3d a1 d1 5b 3d
       -0.026608262 -0.042241793 0.07158504 0.053666715
000070 da 89 55 be b4 a8 28 3c 70 71 19 be 0f ad 60 bc
       -0.20853367 0.010294128 -0.14984679 -0.013713135
000080 3d 67 8c 3d ec fe fe bd 23 ca 14 bd 29 5d 8e bd
       0.06855629 -0.12450966 -0.036325585 -0.06951363
000090 53 b7 21 be 47 6b 53 3d aa 4f f8 3d ba 8f 87 bd
       -0.15792589 0.05161598 0.1212457 -0.066192105
0000a0 e2 e6 7b 3d a0 9a 1d 3c 4e f7 9b 3e 90 f2 40 be
       0.061499484 0.009619385 0.30462116 -0.1884253
0000b0 f7 a6 74 bd 8d 5f 15 be db 5b 07 3e 16 f9 22 bc
       -0.059729543 -0.14587231 0.13218634 -0.009947082
0000c0 22 70 a6 bb 73 63 0f bc 82 0b eb 3d 96 f7 e9 bc
       -0.0050792852 -0.008751738 0.11476804 -0.028560441
0000d0 d5 10 12 be 28 c7 a5 bc 7b 93 00 3e dc ce 89 3e
       -0.14264233 -0.020236567 0.1255626 0.26915634
0000e0 9a 78 f5 3c 96 1e 14 be d3 d3 f4 bc da b5 14 bd
       0.029964734 -0.14464793 -0.029886162 -0.03630624
0000f0 ab 76 85 3d 37 94 66 bd c5 c9 c2 bd ce f8 01 bc
       0.06516775 -0.056293692 -0.09511141 -0.007932855
000100 86 70 92 bd 7f ff d6 bd ed 17 b8 bd 60 42 bd bd
       -0.071503684 -0.10497951 -0.089889385 -0.09241176
000110 c4 ae 9f bd ef 2e 0d be 4f bd 86 3c 14 e3 11 be
       -0.07797006 -0.13787435 0.016447691 -0.1424678
000120 e2 4a c3 bc 39 e2 16 be d3 14 a3 bc 14 a0 25 3e
       -0.023839418 -0.14734735 -0.01990739 0.16174346
000130 df d9 22 bd f2 5b 87 bc e5 31 bf 3d 31 85 92 bd
       -0.03975856 -0.016523335 0.093356885 -0.071543105
000140 ed 96 59 bd 9a 57 2a be 23 82 18 be 2c 98 63 bd
       -0.05312245 -0.1663498 -0.14893393 -0.055565044
000150 86 f8 ed 3d 03 59 6e bc 44 26 be 3d 99 4a 7f 3d
       0.11619668 -0.014547589 0.09284642 0.062327
000160 f1 d9 ad bc 27 c7 38 3d 19 b7 a2 bc c9 b0 5a be
       -0.021222087 0.0451118 -0.019862698 -0.213565
000170 9c a1 1c 3d 65 6a 0c 3c f0 4a ce bd 38 6c 1a be
       0.03824006 0.008570288 -0.10072887 -0.15080345

fc2.bias f4 [3]
000000 3a 33 e3 bd 5e 27 d7 bc 17 0c 72 bd
       -0.11093755 -0.026263889 -0.05909356
