Results/outputs_conditional_downstream/node_clf_Real_Gen.pth (torch, 6944 bytes, 4 tensors)

conv1.bias f4 [32]
0	0xbd51d34c	-0.0512269
1	0x39bfe823	0.00036603314
2	0xbd36b191	-0.044602934
3	0xbdb1adbf	-0.086757176
4	0xbd488b2a	-0.048960842
5	0xbd0a2fee	-0.033737116
6	0xbd641f64	-0.055694
7	0xbc70ca11	-0.014696614
8	0x3bf1d2d2	0.007379868
9	0x3d012435	0.03152867
10	0xbd7c5da3	-0.061612736
11	0xbd826875	-0.0636758
12	0xbd31b9d7	-0.04339012
13	0xbd8194b9	-0.06327195
14	0x3cd113f5	0.025522212
15	0xbcbe6f8a	-0.023246545
16	0xbca6d407	-0.020364774
17	0xbdfacc8f	-0.12246048
18	0xbd0be13c	-0.034150347
19	0x3d8e4d1f	0.069483034
20	0xbdc89396	-0.09793775
21	0xbc18a13d	-0.009315786
22	0xbd19d10b	-0.037552875
23	0xbd9c80b3	-0.07641735
24	0x3cc19b08	0.023633495
25	0xbd61ac5d	-0.05509602
26	0xbd396c37	-0.045269217
27	0x3d140448	0.036136895
28	0xbc0ca4ec	-0.008584242
29	0x3db62868	0.08894426
30	0xbd9c20d0	-0.07623446
31	0xbc9cba5d	-0.019131834

conv1.lin.weight f4 [32, 32]
0	0x3ac7fff9	0.0015258781
1	0xbe44376b	-0.19161765
2	0x3d362820	0.04447186
3	0xbd0fa47b	-0.03506897
4	0xbe9ab94b	-0.30219492
5	0xbe8414cb	-0.25797114
6	0x3d15ad31	0.03654212
7	0xbe2a6cf8	-0.16643131
8	0x3ddcfebe	0.10790776
9	0xbcfa00c8	-0.03051795
10	0xbe1caf59	-0.15301265
11	0xbdd570d1	-0.10421909
12	0xbe47d798	-0.19515836
13	0x3dc7acd8	0.09749764
14	0x3e2a7898	0.16647565
15	0xbd7fb95b	-0.062432628
16	0xbe822702	-0.25420386
17	0x3e28d67a	0.16488066
18	0x3e3de49a	0.18544236
19	0x3e261df1	0.16222359
20	0xbd8bc44c	-0.0682455
21	0x3c9039d1	0.017605694
22	0xbd1d8513	-0.038456988
23	0xbe2a06e5	-0.16604193
24	0xbea7926b	-0.32728896
25	0xbd99a26a	-0.07501681
26	0x3d8be9bf	0.06831693
27	0x3dfb1c3b	0.12261244
28	0x3c7792af	0.015110656
29	0x3d860825	0.06544522
30	0x3e151e8a	0.14562431
31	0xbdd3a274	-0.1033372
32	0x3e16b837	0.1471871
33	0xbc368671	-0.011140452
34	0xbda6b327	-0.08139639
35	0xbe089ac1	-0.13340284
36	0xbe369053	-0.17828493
37	0xbe71834d	-0.23585244
38	0x3d612687	0.054968383
39	0x3e88f8ee	0.26752418
40	0x3cd05d3a	0.025435079
41	0x3bf43fc6	0.0074538914
42	0xbde6244e	-0.11237393
43	0xbdef94c5	-0.116982974
44	0xbe02b8bc	-0.12765783
45	0x3d1c810e	0.038209014
46	0xbc46ed5e	-0.012141554
47	0xbdd4c312	-0.10388769
48	0x3d2f4513	0.042790484
49	0xbd769f60	-0.060210586
50	0xbdab0a33	-0.08351555
51	0x3e28c437	0.164811
52	0xbe17cacb	-0.14823453
53	0x3e7417e5	0.2383724
54	0xbe53a802	-0.20669559
55	0x3e91c324	0.28469193
56	0x3d11db14	0.03560932
57	0x3de3a18e	0.111147985
58	0xbdb9ce1e	-0.09072517
59	0xbdd646b3	-0.104627036
60	0xbe8bc108	-0.2729571
61	0xbe8ab8bc	-0.27094066
62	0x3e4f13ea	0.2022244
63	0x3e998aba	0.29988652
64	0x3c1d1c27	0.009589232
65	0xbe24401f	-0.16040085
66	0xbc8fe91b	-0.017567208
67	0xbd8ddea4	-0.06927231
68	0xbe8c00f9	-0.27344492
69	0xbe7dc263	-0.24781184
70	0x3cabd03f	0.020973323
71	0xbe1de090	-0.15417695
72	0xbdb44cc1	-0.08803702
73	0xbe38c159	-0.18042506
74	0x3d041b29	0.032252464
75	0xbe2be7fe	-0.16787717
76	0xbe034d4b	-0.12822454
77	0x3d8d909c	0.06912348
78	0x3e3c50c3	0.18390183
79	0x3e25c5ae	0.1618869
80	0x3cb15163	0.021645254
81	0xbd53dcc4	-0.05172421
82	0x3e08fbe1	0.13377334
83	0x3e340d89	0.17583288
84	0x3d63a470	0.05557674
85	0x3d3990e0	0.04530418
86	0x3ca7e019	0.0204926
87	0xbcdeef3a	-0.027213681
88	0x3e13c9c9	0.14432444
89	0x3d382f05	0.044966716
90	0xbe85dd35	-0.2614533
91	0xbe4e5dee	-0.20153019
92	0xbe8f46fd	-0.27983847
93	0xbe060449	-0.13087572
94	0xbc75c281	-0.014999987
95	0xbe3f1d76	-0.18663582
96	0xbe9ebc75	-0.31003156
97	0xbe02d0c7	-0.12774955
98	0xbe13dbea	-0.1443936
99	0x3d744fd4	0.059646443
100	0xbf03b2d3	-0.5144474
101	0xbd8de5c4	-0.0692859
102	0xbb20ad32	-0.0024517295
103	0x3eca0746	0.39458674
104	0x3d826be9	0.063682385
105	0xbea30b2e	-0.31844467
106	0xbe1f5845	-0.15561016
107	0x3da003c9	0.07813222
108	0xbd93ff0b	-0.0722638
109	0x3e89942e	0.26870865
110	0x3e94d320	0.29067326
111	0xbe3bc562	-0.18337014
112	0xbe08e5fe	-0.13368985
113	0xbdeb26ac	-0.114819854
114	0xbf013030	-0.50464153
115	0xbed3977a	-0.41326505
116	0x3e948683	0.29008874
117	0x3e7ed8d1	0.24887396
118	0x3e953aee	0.29146522
119	0x3d394e1c	0.045240507
120	0x3de2ca53	0.110737465
121	0xbe6cae55	-0.23113377
122	0xbe4709a9	-0.19437279
123	0x3e8fb73e	0.2806949
124	0x3e7c5f3d	0.24645706
125	0x3e815b6d	0.25265065
126	0x3ce0268a	0.027362127
127	0x3e6d6f00	0.23186874
128	0x3e5354dc	0.2063784
129	0xbe260c75	-0.1621569
130	0x3d0033d1	0.031299416
131	0x3e162d0d	0.14665623
132	0x3d9de4d4	0.07709661
133	0x3ca460fe	0.02006578
134	0xbddd4a6a	-0.10805209
135	0xbd8010a5	-0.06253175
136	0x3e3f4182	0.18677333
137	0xbdfc56a6	-0.123212144
138	0xbe20d2ee	-0.15705463
139	0xbcac6386	-0.02104355
140	0xbe5167b0	-0.2044971
141	0xbe1f379c	-0.15548557
142	0xbcfe9aa4	-0.031079598
143	0x3e2191a3	0.15778212
144	0x3c9b3a00	0.018948555
145	0xbe73059d	-0.2373261
146	0x3dfb5da0	0.12273717
147	0xbe24b3da	-0.16084233
148	0x3cca4ede	0.02469581
149	0xbd27f338	-0.041003436
150	0x3e25cf2c	0.16192311
151	0xbe087137	-0.13324438
152	0xbe344b9e	-0.1760697
153	0xbdd05ef5	-0.101743616
154	0xbd7d26c7	-0.06180456
155	0xbe3b96c3	-0.1831923
156	0x3e0556b9	0.13021363
157	0xbe662a84	-0.22477156
158	0x3cbb57e6	0.022869062
159	0xbe8e39de	-0.27778524
160	0xbd9d8412	-0.07691206
161	0xbdd06156	-0.10174815
162	0xbe10d1a5	-0.14142473
163	0x3e068fba	0.13140765
164	0xbe980a56	-0.29695386
165	0xbd00000c	-0.031250045
166	0xbd7e5929	-0.06209675
167	0xbe34b46c	-0.1764695
168	0x3e6f7c18	0.23387182
169	0x3e235b99	0.1595291
170	0x3d4d1476	0.05006834
171	0xbce55cf9	-0.027998434
172	0x3e078e9f	0.13238
173	0xbe2be98f	-0.16788314
174	0xbe89e4b6	-0.26932305
175	0x3e80c6f8	0.251518
176	0xbe1c9892	-0.15292576
177	0x3cc1dd87	0.023665203
178	0xbb8d6e82	-0.004316152
179	0x3e53fb1c	0.2070126
180	0x3e90683a	0.2820452
181	0xbe59a153	-0.21252947
182	0xbd1efcb2	-0.038815208
183	0xbe8856b2	-0.26628643
184	0x3e2cc2e4	0.1687122
185	0x3e6dbd51	0.2321675
186	0xbe031675	-0.12801535
187	0x3cb0cf51	0.021583231
188	0xbd8c2552	-0.06843056
189	0xbdcd080b	-0.100113
190	0x3e4b8ab7	0.19877134
191	0xbea940f5	-0.3305737
192	0xbdbcf169	-0.09225733
193	0xbd1f945c	-0.038959846
194	0xbeac1087	-0.3360636
195	0x3d5bae94	0.053633288
196	0x3dbddb77	0.09270375
197	0xbe7b1896	-0.24521098
198	0x3d31102c	0.043228313
199	0xbdf8b4fe	-0.121438965
200	0x3e54edaa	0.20793787
201	0xbeb70a34	-0.35749972
202	0x3e46bace	0.19407198
203	0xbe1d9a0b	-0.15390794
204	0x3e412618	0.18862188
205	0xbe836dbf	-0.25669667
206	0x39de5398	0.00042405422
207	0x3cc3b593	0.023890292
208	0x3e02d368	0.12775958
209	0x3d9b8d9c	0.07595369
210	0x3de0594a	0.109545305
211	0xbdf36f70	-0.118864894
212	0xbe8e883f	-0.27838323
213	0xbd9a3657	-0.07529896
214	0x3e62cf71	0.22149445
215	0x3e3ef89f	0.18649529
216	0xbe722c15	-0.23649628
217	0x3e6606ce	0.22463533
218	0x3d3c21a5	0.045930523
219	0xbdb3914a	-0.08767946
220	0x3d9d0b2e	0.07668148
221	0xbd8f4d88	-0.0699721
222	0xbc5a309e	-0.013317255
223	0xbe64ffc9	-0.223632
224	0xbcfdfcda	-0.031004358
225	0x3e9c2c25	0.3050243
226	0x3e5839df	0.21115826
227	0xbe4f88db	-0.2026705
228	0x3d105b0d	0.035243083
229	0x3e067cac	0.13133496
230	0xbd305ef7	-0.043059316
231	0x3aadee73	0.0013269916
232	0x3e30f536	0.1728104
233	0x3e849247	0.2589285
234	0x3e90ecc7	0.28305647
235	0xbe86f2d2	-0.26357132
236	0xbe9f29a2	-0.3108645
237	0x3e4d2fda	0.20037785
238	0x3cdeee1c	0.027213149
239	0x3eadeec4	0.33971226
240	0x3e09fc27	0.13475095
241	0xbde93505	-0.11387066
242	0x3e0cea34	0.13761216
243	0x3d998adf	0.07497191
244	0xbdd21c3c	-0.102592915
245	0x3e85d04f	0.2613549
246	0x3b219f5c	0.0024661636
247	0xbd9cc3a1	-0.07654501
248	0xbe8bf467	-0.27334902
249	0x3de90581	0.11378003
250	0xbe6041a1	-0.21900035
251	0x3e31d63f	0.17366885
252	0xbd4ff7c9	-0.050773416
253	0xbd9d8eef	-0.07693278
254	0xbca908c0	-0.020634055
255	0x3e5e60d2	0.21716622

conv2.bias f4 [3]
0	0xbdf0a929	-0.11751015
1	0x3d56f53b	0.052479964
2	0x385aa612	5.2129915e-05

conv2.lin.weight f4 [3, 32]
0	0x3eafa438	0.34304976
1	0xbe0300f2	-0.1279333
2	0x3e8a9326	0.2706539
3	0x3f64a461	0.8931332
4	0x3de7cab7	0.11317962
5	0x3dd4d912	0.103929654
6	0xbc4eb809	-0.01261712
7	0xbdc41893	-0.09575
8	0x3c62713a	0.013820941
9	0xbea597c5	-0.32342353
10	0xbe84e72f	-0.2595763
11	0xbe959fbd	-0.29223433
12	0xbda144b6	-0.07874434
13	0x3e64f8f5	0.22360595
14	0x3e1ce382	0.15321162
15	0xbeec3ba2	-0.46139246
16	0xbeb341cc	-0.35011137
17	0xbf88ff7c	-1.0702968
18	0x3f23da50	0.64004993
19	0xbeafd9d2	-0.3434587
20	0x3e40afe7	0.18817101
21	0xbef19d21	-0.47190192
22	0x3efb8673	0.49126014
23	0x3e58342f	0.21113656
24	0x3f1c7119	0.61110073
25	0xbda0dddb	-0.078548156
26	0x3f871664	1.0553708
27	0xbe1b4c4c	-0.15165824
28	0x3e0aa94f	0.13541149
29	0x3f8c0d31	1.0941526
30	0xbddfefb2	-0.1093439
31	0xbd343f74	-0.044005826
32	0x3d24ec99	0.0402647
33	0x3d8e1038	0.06936687
34	0x3dad0e64	0.084500104
35	0xbec759e1	-0.3893576
36	0xbe3a2c3b	-0.18180935
37	0x3d7f306f	0.06230205
38	0xbe9fe17e	-0.31226724
39	0x3df964b3	0.1217741
40	0xbea8c22a	-0.32960635
41	0x3ef4fe51	0.47850278
42	0x3e08102e	0.13287422
43	0x3e058315	0.13038285
44	0x3e238e07	0.15972148
45	0x3d45cebe	0.048292868
46	0xbe86e958	-0.26349902
47	0xbeccbc59	-0.39987448
48	0x3ee149da	0.44001657
49	0x3f8451a5	1.0337416
50	0xbe105f7a	-0.14098921
51	0xbf0d95e5	-0.55306846
52	0x3d5611ea	0.052263178
53	0x3d4634bb	0.04839013
54	0x3f6ec7b1	0.93273455
55	0xbe04ce67	-0.12969361
56	0xbf1b2cab	-0.6061503
57	0xbd2b4fb9	-0.041824076
58	0xbf3c3cc6	-0.7353023
59	0xbf6cf2b6	-0.9255785
60	0xbe704035	-0.23461993
61	0xbf7464d3	-0.95466346
62	0x3df77081	0.12082005
63	0x3e942d67	0.2894089
64	0x3e8c553d	0.27408782
65	0x3e829ded	0.25511113
66	0x3d6a0e38	0.057142466
67	0xbf0e543e	-0.55597293
68	0xbd7c3cce	-0.061581425
69	0xbe83c27b	-0.25734314
70	0xbd7801d1	-0.060548607
71	0xbc63acb2	-0.013896154
72	0xbe02b60f	-0.12764762
73	0x3eb852e8	0.36000752
74	0x3df01dc0	0.11724424
75	0x3e81e615	0.2537085
76	0x3e522362	0.2052131
77	0xbe25f64a	-0.16207233
78	0x3e5e0558	0.21681726
79	0xbc78f4d6	-0.015195092
80	0xbdac69e5	-0.08418635
81	0xbe00ac39	-0.12565698
82	0xbe2d9b16	-0.16953692
83	0x3f4245be	0.7588767
84	0x3c3ea187	0.011635191
85	0xbe0c25a9	-0.13686241
86	0xbec1e44a	-0.37869483
87	0x3e80e83a	0.25177175
88	0xbef90766	-0.48638457
89	0x3e33a7d0	0.17544484
90	0xbe81272f	-0.25225207
91	0x3f6c4d2d	0.9230526
92	0xbe84b470	-0.25918913
93	0xbf2b68d9	-0.6695686
94	0xbc649e60	-0.013953775
95	0xbdbb3a78	-0.091420114
