Results/outputs_conditional_downstream/node_clf_Real_Real.pth (torch, 6952 bytes, 4 tensors)

conv1.bias f4 [32]
0	0x3d7ea7d5	0.062171776
1	0xbd68a083	-0.0567937
2	0x3c9b9ca7	0.018995596
3	0xbe083162	-0.13300088
4	0xbbf46d3f	-0.007459312
5	0x3d1982df	0.037478324
6	0x3cadb944	0.021206506
7	0x3cd464a5	0.025926897
8	0xbdcbb5cb	-0.09946784
9	0xbe14047e	-0.14454839
10	0x3d578967	0.05262127
11	0xbdd7bf92	-0.10534586
12	0xbdb05742	-0.08610393
13	0x3bfc7b53	0.007705131
14	0x3dd8faee	0.10594736
15	0xbc6ef067	-0.014583684
16	0xbe1716f8	-0.14754856
17	0xbddca78d	-0.10774145
18	0xbcd152d7	-0.025552196
19	0x3e3e0857	0.18557869
20	0xbd4b2fca	-0.049606122
21	0xbd875677	-0.06608289
22	0xbdb1c39d	-0.086798884
23	0xbdd0adf2	-0.101894274
24	0xbda72041	-0.08160449
25	0xbc5096d4	-0.012731273
26	0xbda9bffa	-0.0828857
27	0x3d146246	0.036226533
28	0xbd9d9cae	-0.076959
29	0xbc67b96f	-0.014143332
30	0x3cc757cc	0.024333857
31	0xbe8f1332	-0.27944332

conv1.lin.weight f4 [32, 32]
0	0x3dff868a	0.12476833
1	0x3d07887e	0.033089153
2	0x3d27cb73	0.04096551
3	0x3e047995	0.12937005
4	0x3d9df8d4	0.07713476
5	0xbde45879	-0.11149687
6	0x3db4fa6a	0.08836825
7	0xbd773445	-0.060352582
8	0x392ba8f1	0.00016370766
9	0xbe1f1446	-0.15535077
10	0xbd15b739	-0.036551688
11	0x3e2fdeb0	0.17174792
12	0xbc04033c	-0.008057412
13	0xbd48b676	-0.049002133
14	0xbd6f623b	-0.05844329
15	0x3bd5205e	0.0065041026
16	0xbdce7057	-0.10080021
17	0x3e566c61	0.20939781
18	0xbdc0340c	-0.09384927
19	0x3cce0a52	0.025151405
20	0x3cee477f	0.029086826
21	0xbe18a142	-0.14905265
22	0x3dcf14d1	0.10111392
23	0x3d7e6c81	0.062115196
24	0xbc65a07c	-0.014015313
25	0xbcba0c13	-0.022710836
26	0x3e346cd2	0.17619637
27	0x3bb9b17b	0.0056669093
28	0xbde80924	-0.113298684
29	0xbdcde072	-0.10052575
30	0x3e23da07	0.1600114
31	0x3e04e414	0.1297763
32	0xbdaadbf7	-0.08342736
33	0xbe16503b	-0.14679043
34	0xbe157554	-0.14595538
35	0xbe9c0236	-0.30470437
36	0xbe8898d7	-0.26679108
37	0x3dcf0218	0.10107821
38	0x3e280f7e	0.1641216
39	0x3e698de8	0.22808039
40	0xbe81ce7d	-0.2535285
41	0x3df57eed	0.119871
42	0xbe739ca5	-0.23790224
43	0x3dd12b6b	0.102133594
44	0x3e2b6b74	0.16740209
45	0x3e4c9f6f	0.19982694
46	0x3e1cb5c2	0.1530371
47	0x3de4ab60	0.111655
48	0xbd6e970c	-0.05824952
49	0x3d6c5186	0.057694934
50	0xbe1b641b	-0.15174906
51	0x3d7d9692	0.061911173
52	0xbe0d20ac	-0.13781995
53	0xbd6f7fa5	-0.05847134
54	0xbe952fdf	-0.29138085
55	0xbe0286c7	-0.12746726
56	0xbe4d1d76	-0.2003077
57	0xbe309a30	-0.17246318
58	0xbe7bd425	-0.24592645
59	0xbe916eec	-0.2840494
60	0x3b05abdc	0.0020396626
61	0x3e14d13d	0.14532943
62	0x3e4288d9	0.18997516
63	0x3db8e8f4	0.09028807
64	0xbeb2984a	-0.34881812
65	0xbec0f315	-0.37685457
66	0x3e4850bc	0.19562048
67	0x3d21d88f	0.039513167
68	0xbe83fbf7	-0.2577817
69	0xbc9cffb9	-0.019164907
70	0x3e147ae9	0.14500012
71	0x3c285bfa	0.010275835
72	0xbe5508a3	-0.20804076
73	0x3e96632a	0.2937253
74	0x3e1dd584	0.15413481
75	0x3dd4715d	0.10373185
76	0xbe9cd8e8	-0.30634236
77	0xbd37bc9a	-0.0448576
78	0xbeca9d53	-0.39573154
79	0x3dbb6c81	0.09151555
80	0x3e997353	0.29970798
81	0x3eac0c30	0.33603048
82	0xbdc5462b	-0.09632524
83	0x3e604b1c	0.21903652
84	0x3d04c870	0.032417715
85	0x3e9fccff	0.31211087
86	0xbe449342	-0.191968
87	0xbe4f8554	-0.20265704
88	0xbecb3aa1	-0.39693168
89	0x3ececf51	0.40392545
90	0xbe476bbb	-0.1947469
91	0x3dafbd6a	0.0858105
92	0xbf083f7f	-0.5322189
93	0x3e4b06ac	0.19826764
94	0x3ea4373e	0.32073396
95	0x3ea35265	0.318988
96	0xbefa85a9	-0.489301
97	0x3de163c3	0.11005356
98	0xbe53ad84	-0.2067166
99	0x3dd71841	0.10502673
100	0x3f14b498	0.58088064
101	0xbe8a9f88	-0.27074838
102	0x3e1db5e5	0.15401419
103	0x3e90c274	0.28273356
104	0x3efb3128	0.4906094
105	0x3e2ff56f	0.17183469
106	0xbead7342	-0.33876997
107	0xbd95e6cc	-0.07319412
108	0x3e82f5c4	0.2557813
109	0xbe569372	-0.20954683
110	0x3c852948	0.016255036
111	0xbed99327	-0.4249508
112	0x3e09b7d6	0.13449034
113	0x3f1eb171	0.61989504
114	0xbe1ea593	-0.15492849
115	0xbe18e12e	-0.14929649
116	0xbda7f5b5	-0.08201162
117	0x3dd326d9	0.10310144
118	0xbe998c17	-0.29989693
119	0xbec17473	-0.37784156
120	0x3d0efe0d	0.03491025
121	0xbd7877a9	-0.06066099
122	0x3c8b1793	0.016979015
123	0xbf01262d	-0.50448877
124	0x3f01da6b	0.50723904
125	0xbda40a40	-0.080097675
126	0xbddbc1fa	-0.107303575
127	0xbdbe0885	-0.09278969
128	0x3c95f8ca	0.018307108
129	0xbba9fa0b	-0.005187278
130	0xbe5daf20	-0.21648836
131	0xbd18ff94	-0.037353113
132	0x3e345717	0.17611347
133	0x3e42d57e	0.19026753
134	0xbeadb3f9	-0.3392637
135	0x3e80e147	0.25171873
136	0xbc143c73	-0.009047615
137	0x3e2894e1	0.16463043
138	0x3e471107	0.19440089
139	0x3e462916	0.1935161
140	0xbe849a3c	-0.2589892
141	0x3e6ba5fc	0.23012537
142	0xbe87e418	-0.2654121
143	0xbd40cfc2	-0.047073133
144	0xbe681708	-0.22665036
145	0xbdfb1506	-0.12259869
146	0x3c3996e7	0.011327482
147	0xbc517868	-0.012785055
148	0xbd9b6271	-0.075871356
149	0x3b86861a	0.0041053416
150	0x3e8f25f2	0.27958637
151	0x3ddbf769	0.10740549
152	0x3dd4d43e	0.103920445
153	0x3c84b114	0.016197719
154	0x3e27db4a	0.16392246
155	0xbd4ad74d	-0.049521733
156	0xbbedbed3	-0.007255414
157	0x3cf0bfde	0.029388364
158	0xbe44ce23	-0.1921926
159	0xbe93602c	-0.2878431
160	0x3eb6eec8	0.3572905
161	0xbda54f16	-0.08071725
162	0x3e946d26	0.28989524
163	0x3da4ab16	0.080404446
164	0x3dc36c76	0.09542172
165	0x3deb25ae	0.11481796
166	0xbd8035dc	-0.06260273
167	0x3e27df84	0.16393858
168	0xbdcb050f	-0.09913074
169	0xbebe8a8f	-0.37215087
170	0xbe19b09d	-0.15008779
171	0xbe2801d0	-0.16406941
172	0xbe69418e	-0.22778913
173	0xbe2d3c28	-0.16917479
174	0xbdeb2bb8	-0.11482948
175	0xbd95470f	-0.07288944
176	0x3dd42757	0.10359066
177	0x3dab5fa9	0.08367855
178	0xbec1bc65	-0.37839046
179	0x3e8573e9	0.26064995
180	0xbdfdc58e	-0.12391196
181	0xbcc443c3	-0.023958093
182	0xbd901724	-0.07035664
183	0xbca5e3e2	-0.020250265
184	0xbdc96282	-0.09833242
185	0x3ee843e1	0.45364287
186	0x3ec0db61	0.37667373
187	0xbdd360f7	-0.10321229
188	0xbe69eda4	-0.22844559
189	0x3d203d41	0.039120916
190	0xbed2005f	-0.41015908
191	0x3f208c15	0.6271375
192	0x3d9d32d1	0.07675708
193	0x3c7ef149	0.015560457
194	0xbcb0c0bb	-0.021576276
195	0xbe36be17	-0.17845951
196	0xbe656e2f	-0.22405313
197	0xbdef19ea	-0.116748646
198	0x3d266b63	0.040629756
199	0xbec72ec6	-0.38902873
200	0x3dc687cf	0.09693872
201	0xbe9a0a73	-0.30086097
202	0x3e972ae9	0.29524925
203	0x3e45cdb0	0.19316745
204	0x3e030ee3	0.12798648
205	0xbe77d92b	-0.24203937
206	0x3c0f9f57	0.008766017
207	0x3db17bb5	0.08666173
208	0x3e08fab4	0.13376886
209	0xbd08afda	-0.03337083
210	0x3e9d5293	0.30727062
211	0xbcc50060	-0.02404803
212	0xbe725ef4	-0.23669034
213	0xbe23f4d4	-0.16011363
214	0xbe03b736	-0.12862858
215	0x3e8bbb5a	0.27291375
216	0xbd12cf62	-0.035842307
217	0x3e0b3803	0.13595586
218	0x3d75e6aa	0.06003443
219	0xbd0deb9f	-0.034648534
220	0x3ea07c13	0.3134466
221	0xbd564204	-0.05230905
222	0xbdeaf7fd	-0.11473081
223	0xbe2a6e00	-0.16643524
224	0xbd123f65	-0.03570499
225	0xbcfbb98f	-0.03072813
226	0x3dac3b7f	0.084097855
227	0xbead8e0f	-0.33897445
228	0xbd93409c	-0.07190058
229	0x3cee45f5	0.029086092
230	0xbe8f1309	-0.2794421
231	0x3ea123c1	0.3147259
232	0xbdf09142	-0.11746456
233	0x3dd66c44	0.10469869
234	0x3a49a3fc	0.0007691977
235	0xbe890f33	-0.2676941
236	0xbdd1f8fd	-0.10252569
237	0x3dd28ef9	0.10281176
238	0xbf07613a	-0.5288273
239	0xbc21bf16	-0.009872219
240	0x3ebab1bd	0.3646373
241	0x3ecadf0d	0.396233
242	0xbe4547e7	-0.1926571
243	0xbd32a4dd	-0.043614257
244	0xbc96bd53	-0.018400824
245	0xbebf10c5	-0.37317482
246	0xbe2e3593	-0.17012624
247	0x3e3c72d4	0.18403178
248	0xbe86b3d9	-0.26309088
249	0x3e8eab52	0.27865082
250	0xbe426a2e	-0.18985817
251	0x3e6b3254	0.22968417
252	0x3c9163fa	0.017747868
253	0x3e9063c6	0.2820112
254	0x3d04dbb8	0.032436103
255	0x3edaff9b	0.42773136

conv2.bias f4 [3]
0	0xbcdca36b	-0.026933393
1	0xbe01368c	-0.12618464
2	0x3e2df6cf	0.16988681

conv2.lin.weight f4 [3, 32]
0	0x3d934423	0.071907304
1	0x3e9b7fd4	0.30370963
2	0xbdb8f579	-0.09031195
3	0xbf571828	-0.84021235
4	0x3e5b0954	0.21390277
5	0xbe91eefb	-0.2850264
6	0x3de755ac	0.112956375
7	0xbed28d34	-0.41123354
8	0xbdb0b217	-0.08627718
9	0xbebc5764	-0.36785424
10	0x3f96047b	1.1720117
11	0x3e48531e	0.19562957
12	0x3f611db5	0.87935954
13	0x3e3a0c74	0.18168813
14	0x3f09ab50	0.5377703
15	0xbe1a53e6	-0.15071067
16	0xbe8f76ca	-0.28020316
17	0xbf3c7936	-0.73622453
18	0x3ed2f282	0.41200644
19	0xbf2fe74a	-0.68712294
20	0x3e441b7d	0.19151111
21	0xbdf369e1	-0.11885429
22	0xbea5b9a6	-0.323682
23	0xbf59c624	-0.85067964
24	0x3f3b5b38	0.73186064
25	0x3e1a81ec	0.15088624
26	0x3db3c77b	0.08778282
27	0x3ec19de3	0.3781577
28	0xbdf01b13	-0.11723914
29	0xbe24d58f	-0.16097091
30	0x3f392e40	0.72336197
31	0xbeff23a9	-0.49831894
32	0x3d9e2e1d	0.07723639
33	0x3e241e3b	0.16027157
34	0xbef2c098	-0.47412562
35	0x3f825485	1.0182043
36	0x3d8e4b73	0.069479845
37	0x3e06b2bd	0.1315412
38	0xbea088d4	-0.31354392
39	0xbf4203cc	-0.75787044
40	0x3b6fa9e7	0.0036569776
41	0x3f4575b1	0.7713271
42	0xbf376853	-0.7164356
43	0x3f53f8ac	0.8280132
44	0xbf8121b0	-1.0088406
45	0xbf0b4da8	-0.5441537
46	0xbf614251	-0.87991816
47	0xbe570510	-0.20998025
48	0x3e3b1e77	0.1827334
49	0x3f263084	0.6491778
50	0x3e7e985c	0.24862808
51	0xbf3f15b8	-0.74642515
52	0x3e116959	0.14200343
53	0x3e8a576f	0.27019832
54	0x3a1e6cf6	0.0006043458
55	0x3f8b8001	1.0898439
56	0x3f19badc	0.6005075
57	0xbdf5d5ee	-0.120036945
58	0xbe5eda32	-0.21762922
59	0xbefd149a	-0.4942978
60	0xbd2e0085	-0.042480964
61	0x3ceb8444	0.028749593
62	0x3ee6f4c4	0.45108616
63	0x3f682dad	0.90694696
64	0x3ea9f0eb	0.33191618
65	0x3c1bb7fe	0.009504316
66	0x3f0ffe71	0.5624762
67	0xbeeb5adf	-0.45967767
68	0xbe0e116b	-0.13873832
69	0x3f1b5e9a	0.60691226
70	0xbea485ec	-0.32133424
71	0x3ede919f	0.43470475
72	0xbe2ecda9	-0.1707064
73	0xbf863b46	-1.0486839
74	0xbf4c4f6c	-0.7980869
75	0xbeecea26	-0.4627239
76	0x3e9011c3	0.2813855
77	0x3efe83cb	0.49709925
78	0x3e1bc9cb	0.15213697
79	0xbb9d5fba	-0.0048026713
80	0xbe68f112	-0.22748211
81	0xbe773d91	-0.2414458
82	0xbe413344	-0.18867213
83	0x3f8861fb	1.0654901
84	0x3e239e2b	0.15978305
85	0xbecdbfd9	-0.4018543
86	0x3d6c03f1	0.057620946
87	0xbf5900cc	-0.8476684
88	0xbf578d7c	-0.84200263
89	0xbe6e5d5b	-0.232778
90	0xbca9a876	-0.020710211
91	0xbf13912c	-0.5764339
92	0x3e437e7a	0.19091216
93	0x3e8afc8b	0.271458
94	0xbf6c65f9	-0.923431
95	0xbf55387e	-0.83289325
