Results/outputs_conditional_downstream/node_clf_Gen_Real.pth (torch, 6944 bytes, 4 tensors)

conv1.bias f4 [32]
0	0xbe0dbd82	-0.13841823
1	0xbd651906	-0.055932067
2	0xbd832e1d	-0.0640528
3	0xbe3531d4	-0.17694789
4	0xbd0c7f86	-0.034301303
5	0xbdcf0038	-0.101074636
6	0xbda38556	-0.07984416
7	0xbd588557	-0.052861538
8	0xbde1611e	-0.11004852
9	0xbd66b53c	-0.056325182
10	0xbde4fbe1	-0.111808546
11	0xbdce6421	-0.10077692
12	0xbc7ebf6a	-0.015548566
13	0xbd64c591	-0.055852477
14	0x3c7f42e9	0.0155799175
15	0xbdbd6435	-0.092476286
16	0xbd2d86e1	-0.04236496
17	0xbd9dd2b6	-0.077062055
18	0xbddc05e6	-0.107433125
19	0xbdad7e95	-0.08471409
20	0xbd084f5c	-0.033278808
21	0xbca3b582	-0.01998401
22	0xbdbdeb8c	-0.092734426
23	0xbdc959b3	-0.09831562
24	0xbdd9c3eb	-0.106330715
25	0xbda1368a	-0.078717306
26	0xbdbeccee	-0.09316431
27	0xbd809364	-0.062781125
28	0xbdae3e6f	-0.08508002
29	0xbd8afc87	-0.06786447
30	0xbd4f5baa	-0.050624527
31	0xbd645fe7	-0.055755522

conv1.lin.weight f4 [32, 32]
0	0x3a853b78	0.0010164818
1	0x3df5ff3e	0.12011574
2	0x3e07cb73	0.13261203
3	0x3e4a6bd1	0.19767691
4	0xbe962ac0	-0.2932949
5	0x3ea84f95	0.32873216
6	0xbe19821e	-0.14991042
7	0x3cd36f3d	0.025809878
8	0xbdc9901d	-0.098419406
9	0xbd3ee157	-0.04660162
10	0x3e125b18	0.14292562
11	0xbe982960	-0.29719067
12	0x3e31283d	0.17300506
13	0x3e5649a1	0.20926525
14	0x3c8f883d	0.017521018
15	0xbe04b876	-0.12960991
16	0xbe9948d5	-0.2993838
17	0x3e660f84	0.22466856
18	0x3e81f70c	0.25383794
19	0x3eb495d1	0.3527055
20	0x3e8181bc	0.25294292
21	0x3cab4d2c	0.020910822
22	0x3e76c4b6	0.24098477
23	0x3cae2ba5	0.021261046
24	0xbeab189b	-0.3341721
25	0xbe46998a	-0.19394508
26	0xbd80a75d	-0.06281922
27	0xbd18e27c	-0.037325367
28	0xbdcccf1a	-0.10000439
29	0xbe86fbb8	-0.2636392
30	0xbe26d4e5	-0.1629215
31	0x3e4a6645	0.19765575
32	0x3e9e0ae2	0.30867678
33	0xbd077f01	-0.033080105
34	0xbe900d74	-0.28135264
35	0xbe4cb15c	-0.19989532
36	0xbe1dab91	-0.15397479
37	0x3d8b4d31	0.068018325
38	0x3e81c006	0.25341815
39	0x3e8ab9ef	0.2709498
40	0xbe9a5d6f	-0.3014941
41	0x3e4d9e3c	0.20079893
42	0xbd046cf1	-0.032330457
43	0xbe7082d9	-0.23487414
44	0xbda36c88	-0.07979685
45	0xbdc5b492	-0.09653582
46	0x3e080f98	0.13287199
47	0xbdf21ec3	-0.118222736
48	0x3cb31576	0.02186082
49	0x3e9ea35a	0.30984002
50	0x3dd29ccb	0.10283812
51	0xbe96bd5c	-0.29441345
52	0xbe6bd0f6	-0.23028931
53	0xbd2f0a62	-0.04273451
54	0xbdd26f40	-0.102751255
55	0x3c3f3679	0.011670702
56	0xbebfdf40	-0.37475014
57	0x3e69ad3e	0.22819993
58	0x3d51ed26	0.051251553
59	0x3d57a796	0.052650057
60	0xbd43145a	-0.04762683
61	0x3d5dd536	0.054158412
62	0x3e00fa5f	0.12595509
63	0xbcbb5f28	-0.022872522
64	0xbd18591a	-0.03719435
65	0x3c20277c	0.009775039
66	0xbe197119	-0.1498455
67	0xbcd9abc1	-0.026571156
68	0x3e49332c	0.19648427
69	0xbd3d9e12	-0.046293326
70	0x3dcb258b	0.0991927
71	0x3cc60013	0.024169957
72	0x3e21977f	0.15780447
73	0xbe2e3bbf	-0.17014979
74	0xbf1b625e	-0.6069697
75	0x3e58bbc9	0.21165384
76	0x3d16f52b	0.036854904
77	0x3d399adf	0.045313712
78	0x3edb0aab	0.42781577
79	0x3d86e1c5	0.06586031
80	0x3e71c0a8	0.23608649
81	0xbf173fdf	-0.59081835
82	0x3d501aec	0.050806925
83	0x3e32b94f	0.17453502
84	0xbcefccff	-0.029272554
85	0x3e980a8e	0.29695553
86	0x3e9bad16	0.30405492
87	0xbc4dc99c	-0.012560274
88	0x3e63fa02	0.22263339
89	0x3e48c9be	0.19608209
90	0xbd4fc2b0	-0.050722778
91	0xbe9ec5d7	-0.31010315
92	0xbe6cbbfb	-0.23118584
93	0x3e75dcb9	0.2400998
94	0xbd41e328	-0.047335774
95	0xbe2ddaf4	-0.16978055
96	0x3daadf5c	0.08343384
97	0x3e98c6a0	0.2983904
98	0xbe0797a8	-0.13241446
99	0xbbb04009	-0.0053787273
100	0x3dc83c2c	0.09777102
101	0x3dc917b3	0.098189734
102	0xbe372cdf	-0.1788821
103	0xbe03ee3b	-0.12883846
104	0xbe0e9bb3	-0.13926582
105	0x3e65fef2	0.22460535
106	0xbdfedec7	-0.12444835
107	0xbd444d16	-0.047925077
108	0x3d7bac9c	0.06144391
109	0x3d19e568	0.037572294
110	0x3e01cf60	0.12676764
111	0xbe4dc9d4	-0.20096523
112	0xbea4cbcc	-0.32186735
113	0xbe1e41e7	-0.15454827
114	0x3c27d6bf	0.010244071
115	0x3dd349ec	0.10316834
116	0xbd56d2bf	-0.052447077
117	0xbe82f412	-0.25576836
118	0xbd8cd0bc	-0.068757504
119	0xbdeb192d	-0.11479411
120	0xbcfac74c	-0.03061261
121	0x3ccc832a	0.024964888
122	0xbe8b1386	-0.27163333
123	0x3eb1c088	0.34717202
124	0x3eee1c43	0.46505937
125	0x3d5bd52f	0.053670105
126	0xbe1bae4b	-0.15203206
127	0xbdc6a638	-0.096996725
128	0xbe688762	-0.22707894
129	0x3ee2220c	0.441666
130	0xbd647251	-0.055773083
131	0xbe4067d0	-0.18789601
132	0x3bca98d8	0.006182771
133	0x3e1358cd	0.14389344
134	0xbdf1c487	-0.11805063
135	0xbe673059	-0.22577037
136	0x3d78370b	0.060599368
137	0x3efd9a7f	0.49531934
138	0xbe067821	-0.13131763
139	0xbe6f712b	-0.23383014
140	0xbe3ad162	-0.18243936
141	0x3e80f9d4	0.25190604
142	0xbd3f3268	-0.04667893
143	0xbdffe9d7	-0.12495773
144	0xbe7f5744	-0.24935633
145	0x3c83b802	0.016078953
146	0x3ea51d94	0.3224913
147	0x3e1c0dc7	0.1523963
148	0x3e1dbdcf	0.15404437
149	0xbdaa80a9	-0.08325321
150	0x3e2ef1ab	0.17084377
151	0x3e1a5f02	0.15075305
152	0xbca01d9f	-0.019545374
153	0xbb64728b	-0.0034858312
154	0x3ea051e1	0.3131247
155	0x3ea58937	0.3233125
156	0x3e9785c9	0.29594257
157	0x3d549d8a	0.051908053
158	0xbc4e1b6f	-0.012579783
159	0xbdcee28c	-0.10101804
160	0xbe4d41e2	-0.20044664
161	0x3e9594dd	0.29215136
162	0x3c85487f	0.01626992
163	0x3d98c11c	0.07458708
164	0xbd160c6b	-0.036632936
165	0x3e143dc0	0.14476681
166	0x3d832acb	0.064046465
167	0xbdf4b0ef	-0.1194781
168	0xbd234d5f	-0.03986871
169	0x3de6463a	0.112438634
170	0xbe034683	-0.12819867
171	0xbdd7cc9a	-0.105370715
172	0xbd121b1f	-0.035670396
173	0xbdd9b8a0	-0.106309175
174	0xb965c950	-0.00021914137
175	0x3dd02513	0.10163321
176	0xbe81bfa0	-0.2534151
177	0xbed4058b	-0.4141048
178	0x3e17b50b	0.14815156
179	0x3eb617ab	0.35564932
180	0x3eac1ca2	0.33615595
181	0x3d5867ce	0.05283337
182	0x3e2febfe	0.17179868
183	0xbe68bf58	-0.22729242
184	0x3e21174b	0.15731542
185	0xbccb7b43	-0.02483905
186	0x3d7c2db5	0.061567027
187	0xbe4fc120	-0.20288515
188	0x3d102e3f	0.035200354
189	0xbdce2b80	-0.10066891
190	0xbeae5895	-0.34051958
191	0xbdb90e84	-0.09035972
192	0xbd8d6b45	-0.06905226
193	0x3dbced23	0.09224918
194	0x3de9dfac	0.11419615
195	0x3d93dbb1	0.07219637
196	0x3d93a714	0.07209602
197	0xbe82b6fd	-0.25530234
198	0xbde8e083	-0.11370947
199	0xbe406be4	-0.18791157
200	0xbdc7cef5	-0.09756271
201	0xbe8a0ac8	-0.2696135
202	0xbde42a2f	-0.111408584
203	0xbe46e8bd	-0.1942472
204	0x3e222bf6	0.15837082
205	0x3c51b497	0.012799404
206	0xbdb03ce0	-0.08605361
207	0xbdca756b	-0.09885677
208	0xbc6bc7f8	-0.014390938
209	0xbd88f209	-0.066867895
210	0xbc9f3d42	-0.01943839
211	0x3ee6acd2	0.45053726
212	0x3dc3e3de	0.095649466
213	0x3e19d954	0.1502431
214	0x3e2d79a2	0.1694093
215	0xbd650e7a	-0.05592201
216	0x3e13f52e	0.14448997
217	0x3de83236	0.11337702
218	0x3e1a9eaf	0.15099595
219	0x3e568cef	0.209522
220	0xbe07748f	-0.13228057
221	0x3cd6970d	0.026195074
222	0xbe3299b1	-0.17441441
223	0xbe0ca123	-0.13733344
224	0xbda22da3	-0.07918861
225	0xbdbcfdde	-0.09228109
226	0x3dc63f68	0.096800625
227	0xbe453c06	-0.19261178
228	0x3d8844b4	0.06653729
229	0x3e6ff98e	0.23435041
230	0xbc7de744	-0.015497033
231	0x3e56fbee	0.20994541
232	0xbce9bdff	-0.02853298
233	0x3da29aff	0.079397194
234	0x3d14e94d	0.036355305
235	0x3d8155f2	0.06315221
236	0xbe0f6b39	-0.14005746
237	0xbda618cf	-0.081102006
238	0x3e074378	0.13209331
239	0x3df3a6bb	0.11897036
240	0xbb3a3625	-0.002841362
241	0xbeb27cf3	-0.34860954
242	0x3c2ca71e	0.010537891
243	0x3cdcbc6e	0.026945319
244	0xbca80a47	-0.020512713
245	0x3e190481	0.14943124
246	0x3d45e601	0.048315052
247	0xbce311b4	-0.027718402
248	0x3ddcb65a	0.10776968
249	0xbdcc48ce	-0.09974824
250	0xbecc6551	-0.39921048
251	0xbdc0b4cc	-0.09409484
252	0x3dcd590c	0.1002675
253	0xbe92be44	-0.28660786
254	0xbebda860	-0.37042522
255	0xbe1eb8ca	-0.15500179

conv2.bias f4 [3]
0	0x3d7e0748	0.062018663
1	0x3d0530df	0.03251731
2	0xbe51cb41	-0.20487691

conv2.lin.weight f4 [3, 32]
0	0xbdfe1b58	-0.12407559
1	0xbeaad18c	-0.33362997
2	0xbdb6dd5a	-0.08928938
3	0x3e5e73a4	0.21723801
4	0xbe132ffd	-0.14373775
5	0xbdd16c3a	-0.10225721
6	0x3e4ec0bd	0.20190711
7	0x3e5ac9da	0.21366063
8	0xbe38112b	-0.17975299
9	0x3ddb8516	0.107187435
10	0xbcdc8cfa	-0.026922692
11	0x3e9ecad3	0.31014118
12	0xbde57e9d	-0.1120579
13	0x3c5606c5	0.013063137
14	0xbeb08897	-0.3447921
15	0x3e2579b0	0.16159701
16	0x3d6f3638	0.058401316
17	0xbd5bb6a9	-0.053640995
18	0x3d84e9b5	0.064898886
19	0xbe239480	-0.15974617
20	0xbe1d74b2	-0.15376547
21	0xbe82082e	-0.25396866
22	0xbcdcbf34	-0.026946642
23	0x3e4ce4c1	0.20009138
24	0x3d0cd1ad	0.03437965
25	0xbdd2cc24	-0.10292843
26	0x3df9edcd	0.1220356
27	0xbd7aa2af	-0.061190303
28	0x3e5ab9f4	0.21359998
29	0x3eb36a76	0.3504216
30	0xbecc9f6b	-0.39965376
31	0xbd9abae6	-0.07555179
32	0xbdc8562d	-0.09782062
33	0xbbab02b7	-0.0052188295
34	0xbef0b218	-0.47010875
35	0x3e071200	0.1319046
36	0xbde5d5a2	-0.11222388
37	0xbe524458	-0.20533884
38	0x3e0aedbc	0.13567251
39	0xbca93a53	-0.020657694
40	0x3e599b6b	0.21250694
41	0x3e8931f5	0.26795927
42	0xbe863dac	-0.26218927
43	0x3e9561e3	0.29176244
44	0xbdb55365	-0.08853797
45	0x3deac8ef	0.11464106
46	0xbdab4c4b	-0.08364161
47	0xbce892ad	-0.028390253
48	0xbc01089a	-0.007875586
49	0x3e89d05a	0.26916772
50	0x3e447b0c	0.19187564
51	0x3cef53f6	0.02921484
52	0x3da7eca7	0.08199435
53	0xbe41433d	-0.18873306
54	0xbe5fb8c7	-0.2184783
55	0xbdeca26e	-0.115544185
56	0xbe86926e	-0.26283592
57	0x3e5be801	0.21475221
58	0xbe3ff720	-0.18746614
59	0xbe67412a	-0.22583452
60	0xbd80575e	-0.06266664
61	0x3e28a4ae	0.1646907
62	0xbe4b628b	-0.1986181
63	0xbecec321	-0.40383247
64	0xbf0a33e1	-0.5398541
65	0x3b15d961	0.0022865164
66	0xbd9e7775	-0.07737628
67	0xbe349f29	-0.1763884
68	0xbebcade9	-0.36851433
69	0xbe9ccaaf	-0.30623385
70	0x3d7dbaf9	0.06194589
71	0x3e4a1633	0.19735031
72	0xbcc04edd	-0.023475105
73	0xbd2a564f	-0.041586217
74	0xbe0f91f7	-0.14020525
75	0xbb256350	-0.0025236197
76	0x3cefa4ef	0.029253451
77	0xbdb16e4d	-0.08663616
78	0xbdfa0e04	-0.122097045
79	0xbc989a01	-0.018628122
80	0x3e2f1813	0.17099027
81	0x3e54ebb1	0.20793034
82	0x3e82d9a2	0.25556666
83	0x3cbe1d52	0.02320734
84	0xbc849553	-0.016184485
85	0xbee74bf2	-0.4517513
86	0xbdbd3961	-0.0923946
87	0x3e521322	0.20515111
88	0xbd02f54e	-0.031972222
89	0xbe457c76	-0.1928576
90	0x3db3e8cc	0.08784637
91	0x3d89c237	0.06726497
92	0x3e7f8bde	0.24955699
93	0x3e63ff4b	0.22265355
94	0x3ccd4912	0.025059257
95	0xbec8cab8	-0.39217162
