Results/outputs_conditional_downstream/node_clf_Gen_Gen.pth (torch, 6936 bytes, 4 tensors)

conv1.bias f4 [32]
00000000: 5953 c3bc 34e8 1f3d 3dc1 05bd 9167 92bd
00000010: f058 9abd c789 14be a84a 49bd 5bba d1bd
00000020: 4821 65bc f491 7cbd bee8 87bd c9bf 8fbd
00000030: 632a aebc a1fa 15be 20f8 c8bd 7604 c63c
00000040: 0d53 20be 3cee 44bc 420d dbbc 5d07 38bd
00000050: 3852 cfbd dfda 1abd bf0f debc ac92 54bd
00000060: 29bd 11bd 6a2d fabc 080c 5cbd 3dcd d6bd
00000070: ede4 6abd 32ca bcbd cdf9 a8bd e0d5 50bd
-0.023843454 0.039039806 -0.03265499 -0.0714866 -0.07536495 -0.14505683 -0.049143463 -0.102406226
-0.013984986 -0.06166263 -0.06636189 -0.07019002 -0.021260446 -0.14646389 -0.09812951 0.024172049
-0.15656681 -0.01201969 -0.02673972 -0.044928897 -0.10123104 -0.037806388 -0.027107118 -0.05189769
-0.035580788 -0.030539233 -0.05372241 -0.10488365 -0.057347227 -0.09218253 -0.08250771 -0.050985217

conv1.lin.weight f4 [32, 32]
00000000: 8a97 78be e25e 133e da88 1d3e 2000 14be
00000010: b870 aa3d 8d32 f23d 993f 27be 61d2 8bbe
00000020: 6667 e73c 5ebb d1bd bce6 aa3d 0bd5 a3be
00000030: 028d fc3d 5f89 e43d a8c9 1dbe 5403 d5bd
00000040: 8932 8bbe a9e7 903d 9a6f 3e3e cf05 693e
00000050: 0fb5 433d 3a12 30be 4040 a93e aeea 613d
00000060: c454 21be 8a3c c6bd 094b 113e 5e98 bd3d
00000070: 2ce6 79bc 1f8d 15be 0fe6 903d 0ae6 6a3e
00000080: 2a4e 41be 5809 ac3e 583a 9d3c 7b87 cabd
00000090: b44b 15bf d3eb 203f 4083 10bd 6739 82be
000000a0: c50e 82bc b60a 4e3e 6cc8 b43d 896e c3be
000000b0: ee82 57bd 4112 903d 8f65 ebbd 4504 283b
000000c0: 187e edbe 0875 3ebd 4756 453e 8c08 a93e
000000d0: 6509 743e 655f 3abd 4999 48bc aa24 18bc
000000e0: d839 d6ba 32d7 9ebe 3263 853e a763 023b
000000f0: 52be e6bd 30a7 0abc 11a7 85be c5f3 ecbd
00000100: 93a3 0bbe c79b 713e 3d76 8e3e 5fb6 96bd
00000110: a258 1fbb 042e 4d3e 6cec 1ebc 830b 143c
00000120: d85e 153e 5523 39be 025e 3f3c b5ff 3dbc
00000130: 9718 59ba 6a58 6dbe e9ea 3d3e 1648 e9bd
00000140: ab8e c53c dfd9 f2bd ab46 8abe 8b36 063d
00000150: cfc2 343e 91ff b33e 9de0 a03d f356 1cbe
00000160: 1593 37be f3a2 82be 879b b0be cadf 5e3e
00000170: 75a1 25be f16c a5be 3cb5 c7bd 96e8 fd3d
00000180: 574e 99bb a9f8 a4be ff69 77be d7e0 0b3e
00000190: 8541 833d 6364 063e abfd ed3d fd75 00be
000001a0: 6d51 dc3d ef6a 6abe e406 8fbe 2139 a03e
000001b0: ec87 193d 9859 fdbc 8d77 61be 737f 003e
000001c0: bca7 893e abcd 453e 080f 4e3e 98df d2be
000001d0: 75ef 55be a7ed 8abd ac56 8f3d 4cc2 86bd
000001e0: 3ccd 123e b29a 823d 6bed 5dbd c591 6e3d
000001f0: 4986 6fbd 6773 92bd aaa3 a33e c5d3 043e
00000200: 09f3 403d 1b36 9dbd 949d a1be a8ee 48be
00000210: 5c2e a23e 3b22 e6be ae09 013e f07e 213e
00000220: 168a 623e 05e6 2bbe 01f6 0ebe 22bd 52bd
00000230: 0a05 9b3d 7ffd aebd 8fb4 9abd c770 59be
00000240: a638 c93e db5f 443c 6160 963d 21b0 203e
00000250: 2b59 b6bd a6b5 9ebd fe58 dcbd 4c1b f63d
00000260: a6c3 de3d f886 90b9 8977 97be 2356 3a3c
00000270: 0659 96bd 208a 153e 0997 133c faaf b0bd
00000280: 4c74 28be e59f 9e3d 305b d0bd 9a4c b03d
00000290: aaea bd3d 82d4 5abc ee2e c43d 5fc8 3b3e
000002a0: 5bfe 063c 1e4b 77bd e981 8b3d 17e9 79be
000002b0: b92b 89bd c7d1 eabb 18ca d8bc 89c8 3ebe
000002c0: eeb1 15be 13af 9b3d 7cbc 383e 1493 47be
000002d0: b186 22be 22d2 3a3c 1b3c 04be 29b5 4ebe
000002e0: 9e0d 5cbe 624e bbbd 774e 7f3d 0dac 503e
000002f0: fdee 90bc 7538 923e d658 14bd f3fc 42bd
00000300: 5de5 d83b d873 eabc a0dc 1a3e 2ab8 013e
00000310: 26f4 2abe 485d 3b3e e553 34bd 44e1 723e
00000320: ac3a c2bd 5501 463e 41cf d1bc 02ce 67be
00000330: 8785 bbbd e5ed ae3d 80c4 a9be 1bb3 92be
00000340: f382 babe aa85 a13e 9f8f 52be 71e7 ea3c
00000350: 7d9c 5d3c 0e93 583d 82d6 d03d 9f6f 2ebe
00000360: f70d 533e ecce 56be b89f 0b3e f514 583e
00000370: 7a82 1f3e 6313 b23d 13c3 b13d 4faa 1f3e
00000380: d00e b33e 5a9f b8be 94d9 a2be 3891 e8bd
00000390: fc26 dbbd e505 573d 0c0b 453e 6c5b 8ebd
000003a0: 6ca0 55be 382e 12be dd82 7dbe d795 d23d
000003b0: cf75 fe3d 6d7a 5ebd d540 59bd 0aaa 76be
000003c0: 2748 b6bd 3385 bf3d 56a9 ae3d 1787 b3be
000003d0: de60 143c ed56 00be c11f 87bd d8b4 3a3e
000003e0: 106b 95bd e8a6 313e 9416 5f3e 09d9 813d
000003f0: 6273 80bc 3884 92bd ac08 ec3d 070e a03d
-0.24276558 0.14391664 0.15384236 -0.14453173 0.08322281 0.11826048 -0.16332854 -0.27308944
0.028247546 -0.102408156 0.0834479 -0.31998476 0.123315826 0.11159014 -0.15408957 -0.104010254
-0.27186993 0.07075436 0.1859726 0.22756122 0.047780093 -0.17194453 0.3305683 0.05515545
-0.15754992 -0.09679516 0.1418878 0.09257577 -0.015252631 -0.14604615 0.0707513 0.22939315
-0.18877473 0.3360088 0.01919286 -0.09889122 -0.5831864 0.6285984 -0.03528142 -0.2543442
-0.015876183 0.20121273 0.0882729 -0.3817027 -0.0526151 0.07034732 -0.1149398 0.002563731
-0.46385264 -0.04649833 0.19271193 0.33014333 0.23831709 -0.04550113 -0.012243577 -0.009286085
-0.0016344143 -0.31023556 0.26052243 0.0019895823 -0.112667695 -0.008462712 -0.26104024 -0.11569933
-0.13636617 0.2359458 0.27824584 -0.07359003 -0.0024314304 0.20037085 -0.009699922 0.009035948
0.14586961 -0.18079884 0.011680128 -0.01159661 -0.0008281557 -0.23178259 0.18546642 -0.113907024
0.024115881 -0.11857962 -0.2700704 0.03276686 0.17652439 0.3515592 0.078553416 -0.15267543
-0.17927201 -0.25514945 -0.34493658 0.21765056 -0.16174872 -0.32309678 -0.097513646 0.12397878
-0.0046785283 -0.32220963 -0.24161528 0.13659988 0.06408981 0.13124232 0.11620649 -0.12545009
0.10757718 -0.22892354 -0.27934945 0.31293586 0.03748314 -0.03092651 -0.22018261 0.12548618
0.26885784 0.19316737 0.20122921 -0.41186213 -0.20892127 -0.0678361 0.06998953 -0.06580028
0.14336103 0.06377162 -0.054181498 0.058244485 -0.058477674 -0.071509175 0.31960803 0.12971409
0.047106776 -0.076763354 -0.31565535 -0.1962229 0.31675994 -0.4494799 0.12601349 0.15771079
0.22122988 -0.16786964 -0.1396103 -0.051449902 0.075693205 -0.08544444 -0.0755397 -0.21234427
0.39301032 0.011985744 0.073426016 0.15692188 -0.08903726 -0.077494904 -0.107591614 0.12016925
0.10877161 -0.0002756638 -0.29583386 0.011373076 -0.073411986 0.14603472 0.009008178 -0.08627315
-0.16450614 0.07745341 -0.10173643 0.086083606 0.09273274 -0.01335633 0.09579264 0.18338154
0.008239354 -0.06037437 0.06811888 -0.24405323 -0.066977926 -0.0071661207 -0.026463553 -0.18631186
-0.14618656 0.07601752 0.18040651 -0.194897 -0.15871693 0.011402639 -0.12913553 -0.20186295
-0.2148957 -0.0914581 0.06233069 0.20378132 -0.017692083 0.28558698 -0.036217533 -0.047604512
0.006619139 -0.028619692 0.15123224 0.1266791 -0.16694698 0.18297303 -0.04402532 0.23718745
-0.09483847 0.19336446 -0.025611522 -0.2263718 -0.09156328 0.085414685 -0.3315773 -0.28652272
-0.3642803 0.3154729 -0.205626 0.028674813 0.013526079 0.052874617 0.10197164 -0.17034768
0.20610796 -0.20977372 0.13635147 0.21101744 0.15577117 0.08695104 0.086797856 0.15592311
0.3497224 -0.36059076 -0.31806624 -0.11355823 -0.10700795 0.052495856 0.19242495 -0.06951031
-0.20861977 -0.14275444 -0.24756952 0.10282486 0.12424814 -0.054315973 -0.053040344 -0.24088302
-0.08900481 0.093515776 0.08528392 -0.35064003 0.009056298 -0.1253316 -0.065978535 0.18233049
-0.07295811 0.17348826 0.21785957 0.06340224 -0.015680019 -0.07154125 0.115250915 0.078151755

conv2.bias f4 [3]
00000000: 71d0 8a3d a0d9 193d 9fd3 2ebe
0.06778038 0.03756106 -0.17072915

conv2.lin.weight f4 [3, 32]
00000000: 23c8 8ebc 3b3a c6bd 5230 c03b 0f48 e93d
00000010: f7c3 e13d b64f 3cbe d84b 463e 25c6 15bd
00000020: 8092 a83d dc87 8f3e 0011 b23c cf4a 91bd
00000030: 7ca5 15be ff96 9fbe c125 7bbe 19fb 863e
00000040: 147d 1fbe afa3 3d3e 0dc9 82bc 5c5d 0e3e
00000050: 5a62 933e 2db8 003e 25a1 183e c11b c33d
00000060: efaa c439 802b 5a3e a162 4cbe 9836 6d3e
00000070: 92ba adbd d4ef 623d 195a b03d f320 533d
00000080: 413a 2b3e f37f f1bd 18ce d0bd 2e11 873e
00000090: debb c1bd ed21 433e e397 ac3e ce35 943e
000000a0: 3d1d 6dbe c8be 963d 9b9a a3be 20e6 27be
000000b0: 56e9 31bd 9cd7 72be 909f 313e 9959 473e
000000c0: c39b 6cbd c722 96bd 64a0 aa3e bf68 30bd
000000d0: c2b1 7d3e 1e35 ae3e b664 19be b870 38be
000000e0: 8a0b 7e3e 4343 1abe cd84 743e d029 18be
000000f0: aeb0 a33d d980 4d3d c287 93bc 9629 7f3e
00000100: 6217 eebe 686a c8be c68d 4ebe a032 b43e
00000110: 4f3d 2c3e a465 0d3e 8f71 b93d db36 903e
00000120: c3b2 e3bb dd47 d7bd c301 23be bfac 983d
00000130: 92e3 3fbe 0bdd e7bb dc6a 0b3d fb45 823c
00000140: 3718 433e 96d7 273e d68a 8c3e dbb5 70bd
00000150: 949f 2bbe c023 693e ab7c 293e 687e 7d3e
00000160: 931a 713e 151d 093c efb9 35be 4701 9bbe
00000170: 47ae bc3c c1ef 953e 5bc1 8d3d 112e 98bb
-0.017429417 -0.09679075 0.005865135 0.11390697 0.110237055 -0.18389782 0.1936487 -0.03656592
0.08231068 0.2803334 0.021736622 -0.07094347 -0.14613909 -0.31169888 -0.2452612 0.26363447
-0.15575057 0.18519472 -0.01596501 0.13902801 0.28785974 0.12570257 0.14905222 0.09526778
0.0003751139 0.21305656 -0.19959499 0.23165357 -0.08482851 0.0554045 0.08610935 0.051545095
0.16721441 -0.117919825 -0.10195559 0.26380295 -0.09459661 0.1905591 0.3370963 0.289473
-0.23155685 0.073606074 -0.31953892 -0.1639638 -0.043435417 -0.23715061 0.17346025 0.19467773
-0.057765733 -0.07330852 0.33325493 -0.043068644 0.2477484 0.340249 -0.14979824 -0.18011749
0.2480909 -0.15064721 0.23878784 -0.148597 0.07992683 0.050171707 -0.01800907 0.24918208
-0.46502215 -0.39143682 -0.2017127 0.35194874 0.16820262 0.13808304 0.09054863 0.2816685
-0.0069488003 -0.10511754 -0.15918641 0.07454824 -0.18739155 -0.007075911 0.034037456 0.01590251
0.19052206 0.16390833 0.27449673 -0.05876718 -0.16760093 0.22767544 0.16551463 0.24755251
0.23545294 0.00836875 -0.1774671 -0.30274412 0.02303232 0.2928448 0.06921645 -0.0046441634
